train_result/twibot20/dynamic_cd_unsupervised_cl/classifier.pth (torch, 68017 bytes, 4 tensors)

fc1.weight f4 [64, 256]
0	0x3d242011	0.040069643
1	0xbd7760b1	-0.060394946
2	0xbd93f702	-0.072248474
3	0x3e1cbeee	0.15307209
4	0x3da6bf7e	0.08141993
5	0xbcc7a10e	-0.024368789
6	0x3e079e0e	0.13243887
7	0xbdc1c4a5	-0.09461335
8	0x3dfee2e8	0.12445623
9	0x3de489ab	0.111590706
10	0xbd260a47	-0.040537145
11	0x3d36faa5	0.044672627
12	0xbd15c31c	-0.036563024
13	0x3cdd155e	0.026987728
14	0xbdc2c824	-0.0951083
15	0x3dab256f	0.08356749
16	0xbd7bc520	-0.06146729
17	0x3da696fe	0.08134268
18	0x3cfbabba	0.030721534
19	0xbdc486e1	-0.095960386
20	0x3ca4fe07	0.02014066
21	0xbe38666b	-0.1800782
22	0xbc920c47	-0.01782812
23	0x3d494cbb	0.04914544
24	0xbda2eed0	-0.07955706
25	0xbe231c55	-0.15928777
26	0xbe052ca1	-0.13005306
27	0x3d8abf32	0.06774749
28	0xbdbbbcf9	-0.09166903
29	0x3d50b797	0.050956335
30	0x3e1b8c44	0.15190226
31	0x3d033602	0.032033928
32	0x3a751167	0.00093486015
33	0xbb7801e8	-0.0037842933
34	0xbd8a614d	-0.0675684
35	0x3d5a503a	0.053299166
36	0x3cd274ef	0.025690524
37	0xbdfa4ca7	-0.122216515
38	0x3dade706	0.0849133
39	0xbd03e6b4	-0.032202438
40	0xbdbe53b4	-0.09293309
41	0x3cdd82d5	0.027039925
42	0x3d3185dd	0.043340553
43	0xbceda370	-0.029008597
44	0xbe109e99	-0.14123
45	0x3d0dba35	0.03460141
46	0xbdec2cee	-0.11532007
47	0xbda6b54f	-0.081400506
48	0x3db0f304	0.086401016
49	0x3e323091	0.17401339
50	0x3c5946f5	0.013261546
51	0x3dcbc02e	0.09948765
52	0xbc164f81	-0.009174229
53	0xbd426556	-0.047459923
54	0x3d20b58b	0.039235633
55	0x3e126505	0.14296348
56	0xbe05fb4b	-0.13084142
57	0x3df9cc57	0.12197178
58	0x3dd4799b	0.10374757
59	0x3dc171ff	0.09445571
60	0x3e38179c	0.17977756
61	0xbda2421a	-0.07922764
62	0xbd79673e	-0.060889475
63	0x3e271913	0.16318159
64	0x3d8afe75	0.06786815
65	0x3dac2957	0.084063224
66	0x3c3812c3	0.011234942
67	0xbd7d564c	-0.061849877
68	0xbdb60019	-0.088867374
69	0x3d967f69	0.0734852
70	0xbddcc04d	-0.10778866
71	0xbe48957c	-0.19588274
72	0x3d60dfca	0.054900922
73	0x3e02a369	0.12757649
74	0xbda73c7b	-0.081658326
75	0xbca4b0d1	-0.020103844
76	0x3dd1519c	0.10220644
77	0xbd3a9114	-0.045548514
78	0xbd749d12	-0.059720106
79	0xbcb8a002	-0.022537235
80	0xbd991143	-0.074739955
81	0xbc81708f	-0.015800742
82	0xbdfce704	-0.1234875
83	0xbd450dde	-0.048108928
84	0x3cb667be	0.022266265
85	0xbe1ce0d9	-0.15320148
86	0xbe2e6962	-0.17032388
87	0xbd57a4ce	-0.052647404
88	0xbd040f64	-0.03224124
89	0xbdfc9d7b	-0.123347245
90	0xbdee8df9	-0.11648173
91	0x3cc30907	0.023808016
92	0xbdbf3685	-0.09336571
93	0x3d99d1d1	0.075107224
94	0x3db2ec5b	0.087364875
95	0xbdc6eeae	-0.09713493
96	0x3d15eeda	0.03660474
97	0x3dbc3348	0.091894686
98	0x3e0d82a4	0.13819367
99	0x3dec3573	0.11533632
100	0x3daedf59	0.08538694
101	0xbe034403	-0.12818913
102	0xbd9096be	-0.07060002
103	0x3dab84ef	0.083749644
104	0xbc4cc063	-0.01249704
105	0x3d6297c3	0.055320513
106	0xbdb8a8a7	-0.09016543
107	0x3e21821e	0.15772292
108	0x3d22c888	0.039742023
109	0x3cd0f1c3	0.025505906
110	0xbdfaf3b8	-0.12253517
111	0xbd888a84	-0.06667045
112	0xbd9cb87f	-0.07652377
113	0xbb936195	-0.0044977167
114	0x3df82940	0.12117243
115	0xbe4eab84	-0.20182616
116	0x3bd14688	0.006386582
117	0xbde1a362	-0.11017491
118	0x3daaec96	0.083459064
119	0x3d32c7d6	0.04364761
120	0x3dc6faae	0.09715782
121	0x3c5d2945	0.013498609
122	0xbd0d14ab	-0.03444354
123	0x3ca1e466	0.01976223
124	0x3e2ed971	0.17075135
125	0xbda5ebed	-0.0810164
126	0x3d19fcd2	0.037594624
127	0x3ce42862	0.027851287
128	0x3d4aea8e	0.049540095
129	0xbd237cd1	-0.039913956
130	0xbe226e5b	-0.1586241
131	0x3deb11da	0.11478014
132	0xbcbce642	-0.023059014
133	0xbdca06e5	-0.09864596
134	0x3c7051a2	0.0146679
135	0x3d8b31a3	0.06796577
136	0x38ccda4d	9.76814e-05
137	0x3d9d8f6d	0.07693372
138	0xbdd37a50	-0.10326064
139	0x3de717ed	0.1128386
140	0xbe1841e8	-0.14868891
141	0x3d5bebbe	0.05369162
142	0x3e02b13e	0.12762925
143	0x3ce86fab	0.02837356
144	0xbd507e9c	-0.050901994
145	0x3dcc42da	0.099736884
146	0xbdf2f897	-0.11863821
147	0xbd50f0ac	-0.051010773
148	0x3dfab1fa	0.122409776
149	0x3dba4ccd	0.0909668
150	0x3c329fa9	0.010902324
151	0x3c9c9153	0.019112265
152	0xbc8e5bee	-0.01737782
153	0x3ddabcbe	0.10680531
154	0xbe0ceae8	-0.13761485
155	0xbcf6f25c	-0.030144863
156	0xbd76fb15	-0.060298044
157	0x3e147b91	0.14500262
158	0xbda6d45a	-0.081459716
159	0xbcf0e20a	-0.029404659
160	0xbe0b81b0	-0.1362369
161	0xbe07e279	-0.13269986
162	0x3db9e22c	0.09076342
163	0xbcc1c302	-0.023652557
164	0xbe2513cd	-0.16120835
165	0x3e6039f1	0.21897103
166	0xbdc69a2e	-0.09697376
167	0xbdbf5587	-0.09342485
168	0x3bee6fe6	0.007276523
169	0x3e34360f	0.17598747
170	0x3dd27717	0.10276621
171	0x3c5317f6	0.012884131
172	0xbe608757	-0.21926628
173	0xbd22e13e	-0.03976559
174	0x3d83a332	0.064276114
175	0x3e1f4aef	0.15555929
176	0x3e484f06	0.19561395
177	0x3dae27c9	0.08503682
178	0xbe4f2dce	-0.20232317
179	0xbbf7ea79	-0.007565793
180	0x3c55392e	0.013014121
181	0xbe838405	-0.2568666
182	0x3e20057d	0.15627094
183	0xbdfd848a	-0.123787954
184	0x3db7d52e	0.08976208
185	0x3e0361c3	0.12830262
186	0x3e5f2fc2	0.21795562
187	0x3d87ea91	0.06636537
188	0xbd0a7592	-0.03380353
189	0x3dee1cb4	0.116265684
190	0x3e4ebf9f	0.20190285
191	0x3e2c88c8	0.16849053
192	0x3d50b083	0.050949585
193	0x3e0159f9	0.12631978
194	0xbd4176e2	-0.047232516
195	0x3d94d847	0.07267814
196	0x3e094efa	0.13409033
197	0x3e2aa874	0.16665822
198	0x3d02f56f	0.031972345
199	0xbd906139	-0.07049794
200	0x3ddb0745	0.10694746
201	0xbcb034d1	-0.02150956
202	0x3cb48ed8	0.02204077
203	0xbe1bdfbc	-0.15222067
204	0x3d0669cc	0.03281574
205	0xbd0812ef	-0.03322118
206	0xbdd2c963	-0.10292318
207	0x3db9c0d8	0.09069985
208	0x3df59bbf	0.11992597
209	0x3d881f00	0.06646538
210	0xbd450398	-0.04809913
211	0xbdd3cb8b	-0.10341557
212	0xbd91f577	-0.07126897
213	0x3e387651	0.18013884
214	0xbdba7d95	-0.09105984
215	0x3d74c29d	0.05975591
216	0xbd7a3c7d	-0.061092842
217	0x3d3605af	0.044439014
218	0xbd2c29b9	-0.042031977
219	0x3e483b8f	0.1955397
220	0xbae6c1a9	-0.0017605323
221	0x3c652524	0.013985906
222	0xbd730a40	-0.059335947
223	0xbd41bff2	-0.047302194
224	0xbddb571b	-0.107099734
225	0xbd9d222c	-0.076725334
226	0x3d92b685	0.07163719
227	0xbdbf9c24	-0.09355953
228	0x3d2ee1c9	0.042695794
229	0x3d25aa7c	0.04044579
230	0xbdeccc69	-0.11562426
231	0xbd8b9e1f	-0.068172686
232	0xbe42858d	-0.18996258
233	0xbd82e7ac	-0.06391844
234	0xbdad74f1	-0.084695704
235	0xbde2b44b	-0.110695444
236	0x3dd065d0	0.10175669
237	0xbe0f1ef9	-0.13976659
238	0x3d6ee3d2	0.058322735
239	0x3be3999b	0.0069458014
240	0x3d8daee8	0.06918126
241	0xbe2b7dca	-0.16747203
242	0xbddc4cc9	-0.10756833
243	0x3d9ef0a5	0.07760743
244	0xbd66d041	-0.05635095
245	0xbd3764a0	-0.044773698
246	0x3b6e9216	0.0036402992
247	0x3e202807	0.15640269
248	0xbce82bdd	-0.028341228
249	0x3d98c745	0.07459883
250	0x3ddd3fd6	0.10803191
251	0x3e294819	0.1653141
252	0xbdeafafa	-0.11473651
253	0x3c78da87	0.01518882
254	0x3d8b8c67	0.06813889
255	0xbd6f5696	-0.058432184

fc1.bias f4 [64]
0	0x3b10c63a	0.0022090808
1	0xbd015626	-0.0315763
2	0xbcc405e0	-0.023928583
3	0x3d391f2e	0.04519575
4	0x3c3b5abd	0.011435208
5	0x3c5f5ba4	0.013632689
6	0xbb199d43	-0.0023439683
7	0xbc8ebf40	-0.01742518
8	0xbc8a479a	-0.016879845
9	0xbcf469e5	-0.02983565
10	0x3ca1f193	0.019768512
11	0xbc1fbdc0	-0.00974983
12	0xbc898d2a	-0.016790945
13	0xbca5b04a	-0.020225663
14	0xbd025d35	-0.03182717
15	0xbd0bde49	-0.034147535
16	0xbce0442f	-0.027376262
17	0xbca2e69f	-0.01988536
18	0xbcd00242	-0.025391702
19	0x3d0d3f6b	0.03448431
20	0xbd163034	-0.036667064
21	0x3c921de7	0.017836524
22	0x3ca7f115	0.020500699
23	0x3cb102e2	0.02160782
24	0xbb8eb76f	-0.004355363
25	0xbd0ee118	-0.034882635
26	0xbc32f5cb	-0.010922859
27	0xbcbf8bda	-0.023382116
28	0xbd0302d4	-0.03198512
29	0xbcbe45a4	-0.023226567
30	0xbcbdf9d0	-0.023190409
31	0x3d80018b	0.06250294
32	0xbc88c3e9	-0.01669498
33	0xbd2c23a9	-0.042026196
34	0xbc7fb4cd	-0.015607071
35	0xbd031a72	-0.032007642
36	0xbbb704e9	-0.005585302
37	0xbccf9423	-0.025339192
38	0x3c41a487	0.0118190115
39	0x3bc2e273	0.005947405
40	0xbcf04848	-0.029331341
41	0xbcb26500	-0.021776676
42	0x3d5d2961	0.05399454
43	0x3d52c45b	0.05145679
44	0xbbeaf693	-0.007170507
45	0xbc90f0a4	-0.017692871
46	0x3a909a84	0.0011032377
47	0xbcfdfd6f	-0.031004636
48	0x3d0d49c6	0.034494184
49	0xbd126cfb	-0.035748463
50	0xbd3c80bd	-0.046021212
51	0x3c5c0b47	0.013430423
52	0xbce5f543	-0.028071051
53	0x3b99fcd3	0.0046993284
54	0x3a6ccd8a	0.0009033313
55	0xbce2c31e	-0.02768093
56	0x3c8adcbe	0.016950961
57	0xbc7b767a	-0.015348071
58	0x3bd0e5a9	0.006375034
59	0xbab33e1f	-0.001367513
60	0xbb9d6877	-0.004803713
61	0xbd10b5e9	-0.035329733
62	0x3d059ac9	0.032618318
63	0x3b9c4859	0.0047693667

fc2.weight f4 [2, 64]
0	0x3da27aa5	0.07933549
1	0x3e7065b7	0.23476301
2	0x3d88b380	0.06674862
3	0x3e55fec9	0.20897974
4	0x3dedd8d1	0.1161362
5	0xbe445be9	-0.19175686
6	0x3e2fb883	0.1716023
7	0x3e39a6eb	0.1813008
8	0x3d1d1c4b	0.03835706
9	0xbd97d652	-0.07413925
10	0xbe86cde2	-0.2632895
11	0x3e97c256	0.29640454
12	0x3e178f45	0.14800747
13	0x3d9ed874	0.07756129
14	0x3e822864	0.2542144
15	0xbe209d4f	-0.15685008
16	0x3e32e3e4	0.17469746
17	0xbdc5029b	-0.096196376
18	0x3e3825c7	0.17983161
19	0x3db21412	0.08695234
20	0x3dc283a6	0.09497766
21	0x3c4b019d	0.012390521
22	0xbd7ca1b5	-0.061677653
23	0xbe9c5a0e	-0.30537456
24	0xbe9290b5	-0.28626028
25	0x3dd95ab0	0.106130004
26	0xbcf91f06	-0.030410301
27	0x3d598882	0.0531087
28	0x3e73ac2c	0.23796147
29	0x3e90db58	0.28292346
30	0xbdef9a1b	-0.11699315
31	0x3b2ba6cd	0.002619195
32	0xbe1ea6e2	-0.15493348
33	0xbe73424e	-0.23755762
34	0x3e34ff87	0.17675601
35	0x3da801a3	0.08203437
36	0x3e562bf8	0.2091521
37	0x3e84ebd2	0.25961167
38	0xbe08ecee	-0.13371632
39	0xbe942ce6	-0.28940505
40	0xbe6fb785	-0.23409851
41	0xbdcada68	-0.09904939
42	0x3e32385e	0.17404315
43	0xbd228824	-0.039680615
44	0x3e901885	0.28143707
45	0x3d86ae1a	0.06576176
46	0x3d164bdf	0.03669345
47	0xbc10f902	-0.008848431
48	0xbe67fe4a	-0.22655597
49	0xbe7613ac	-0.24030942
50	0x3e56b764	0.20968395
51	0xbdc47bba	-0.095939115
52	0x3eacebb3	0.33773574
53	0xbe239e82	-0.15978435
54	0xbdb92e06	-0.090419814
55	0x3e917dc0	0.28416252
56	0xbe7bb1e5	-0.2457958
57	0xbd2d7055	-0.042343456
58	0xbd1b30be	-0.03788828
59	0xbe091fb4	-0.13391
60	0x3e416631	0.18886639
61	0x3e92bec5	0.2866117
62	0xbdb2d0d9	-0.08731241
63	0xbdf7b1e7	-0.12094479
64	0xbd7583ba	-0.059940077
65	0xbe24ff19	-0.16112937
66	0xbdb42b21	-0.08797289
67	0x3e9af859	0.302676
68	0xbe7b29ca	-0.2452766
69	0x3e8675e4	0.26261818
70	0xbe57a16b	-0.2105767
71	0x3d989177	0.0744962
72	0xbe2c4da0	-0.16826487
73	0xbcfe4850	-0.03104034
74	0x3cb43f45	0.022002826
75	0x3cb5d4a2	0.022196118
76	0x3d2eb6e0	0.042654872
77	0xbdb2638f	-0.087103955
78	0x3dcde507	0.10053449
79	0xbe25cb88	-0.16190922
80	0xbdf6122a	-0.12015183
81	0xbe711f8a	-0.23547187
82	0xbdd5a97c	-0.10432717
83	0x3e843354	0.2582041
84	0x3d105d0e	0.035244994
85	0x3e81d45b	0.25357327
86	0x3d068453	0.032841038
87	0xbd9a763b	-0.07542082
88	0x3d384dd2	0.04499609
89	0xbe1af83c	-0.15133756
90	0xbdf941df	-0.12170767
91	0xbdaa7b86	-0.083243415
92	0xbe816a38	-0.2527635
93	0xbc6f7cc2	-0.014617147
94	0xbe635e24	-0.2220388
95	0x3e1bdbf9	0.15220632
96	0x3e73b13c	0.23798078
97	0xbe93ae53	-0.28843936
98	0xbe42f6ff	-0.19039534
99	0x3d523aea	0.051325716
100	0xbcefe034	-0.029281713
101	0x3df4dd9a	0.1195633
102	0x3e737fa9	0.23779167
103	0x3e40a1a9	0.18811668
104	0x3e496da2	0.19670728
105	0xbe998b3a	-0.29989034
106	0x3e84ecbf	0.25961873
107	0x3d7aaf3d	0.061202276
108	0xbe878e08	-0.2647555
109	0xbdd648fe	-0.10463141
110	0x3e818cea	0.2530282
111	0xbe415940	-0.18881702
112	0x3e753330	0.23945308
113	0xbea5dba8	-0.32394147
114	0x3e4709f6	0.19437394
115	0x3e5dc008	0.21655285
116	0x3e593762	0.21212533
117	0x3e70e31b	0.23524134
118	0x3e0cb839	0.1374215
119	0xbc8254ba	-0.015909541
120	0xbc0965f4	-0.008386124
121	0x3e690d72	0.22759035
122	0x3dd01559	0.10160322
123	0x3dbbb031	0.09164465
124	0xbc6b9789	-0.0143793905
125	0x3e73c6eb	0.2380635
126	0x3d81ee60	0.063442945
127	0x3db53a04	0.08848956

fc2.bias f4 [2]
0	0xbd7a2f6f	-0.061080392
1	0x3d7a2f6c	0.06108038
