train_result/twibot20/dynamic_cd_no_cl_2/classifier.pth (torch, 68017 bytes, 4 tensors)

fc1.weight f4 [64, 256]
00000000: 943a ca3c 4c60 70bd 07b9 aebc 31b5 063e
00000010: f093 323d 7833 85bd c2d4 f23d b492 f7bd
00000020: 53cc c13d 0d07 c53d e0ab 663b c132 2c3d
00000030: 1e48 cb3b 5ebb acbb ffc6 a6bd e021 653d
00000040: 90b7 31bd d030 a43d 3136 983d 7af5 b1bd
00000050: 946d 893d 3ed3 05be cd2c 29bd 989d e23d
00000060: 6976 2bbd 6e63 b8bd f9de e4bd f740 a13c
00000070: 5f67 f9bd e402 ab3c a446 a63d e382 633d
00000080: cbc2 923d 6866 e93c e3cb 03be 703e ed3d
00000090: 8030 8f3d 76cf ebbd d150 683d db48 913b
000000a0: 8f2c e0bd 4a0b 5ebc 7c39 40bb 03ae 40bd
000000b0: cee8 bdbd 0f04 693b 727c 0abe 96b2 8dbd
000000c0: 7b93 1d3e efaf 2b3e 5b36 ab3c 6338 a13d
000000d0: 8c87 02bc f403 a4bd 9db4 4e3d 7c7f 8b3d
000000e0: b2fe ecbd 7cc8 a93d b392 e73d d438 013e
000000f0: 3408 1f3e 30df 07bc 7402 c6bc 5cb5 1f3e
00000100: 3ce4 7e3d 24a2 d43d ea40 12bd 14ee 8fbc
00000110: c4d7 6e39 1255 2b3b 6a27 b1bd 1574 1dbe
00000120: a4f4 af3d 80b0 0e3e 8f6e f2bd aaeb d1bb
00000130: 0626 153e 4874 9abd 934a 1cbd 03c7 9bbd
00000140: 8fee dfbc 861e 663c aa19 ddbd cf65 24bd
00000150: 0df6 0ebd fba4 25be b455 0ebe cff4 0dbe
00000160: 692c 8cbc 2dca 41bd 1028 00be b25f babc
00000170: ac5b 0bbe 450d 843d 0f3b 063e 049a a5bd
00000180: 74ef 833d 5a85 853d d1b0 263e 4ae8 f23d
00000190: 9e8f f13d 7829 1bbe 25af 7dbd bb4c db3d
000001a0: 25cf 97bb 545c c33c db22 96bd 66b3 253e
000001b0: a4b1 8a3d 7c8b ee3c db65 e9bd 086f 9bbc
000001c0: b5c2 61bd 1755 423c 93d4 cf3d 0903 14be
000001d0: ffed 653d 57bc ecbd 9c5c bf3d 914a ba3c
000001e0: a183 993d 5992 60bd 3b8e 4abd 305e 4f3d
000001f0: 3778 1e3e 4fc5 f7bd af87 703c 4639 af3d
00000200: 4e5b b33c b7d9 14bd 3d40 edbd e185 f03d
00000210: a695 67bd cf8f abbd cde6 113d f7e2 973d
00000220: 4a8b 46bd ea18 793d c9a3 88bd 1a28 593d
00000230: 73ac 05be bbdf a43d 76b9 063e 9db2 b93c
00000240: d749 34bd e4dd d93c a8b3 2fbe 6733 c0bd
00000250: 02ba da3d 46bd b83d ccef 37bc b39e 06bd
00000260: 568f 59bb 1d58 f23d 6570 c8bd 680f 75bd
00000270: 4d85 3fbd 81b5 063e c19b 98bd 6a3d 0dbd
00000280: 6d95 cebd 607d b2bd 1d9d fd3d e2fd 51bd
00000290: 8bb0 04be d9e0 193e 0bdd eabd d0df 8abd
000002a0: c38e a8bc 23d1 213e c6df e73d d47a 823d
000002b0: 5f2e 2dbe 76cc c2bb 7619 24bc 8317 db3d
000002c0: da6f e83d d161 8c3d b484 1cbe 0382 3abd
000002d0: 1560 2a3d e903 3cbe d966 003e 9d9e 18be
000002e0: 22a1 ba3d eab2 1d3e faea 243e 386e ec3d
000002f0: 960b 37bb fd72 cf3d 70df eb3d da83 bc3d
00000300: 3a7a b83d 760c eb3d da5c 09bd 8740 8a3d
00000310: 1453 203e dbd1 1a3e 78dc 063d 1ac7 b5bd
00000320: abfa c33d dd38 ce3b 80bf 413d 3a77 04be
00000330: 5c45 8fbc 1f49 23bd cb6c e3bd 3c8e ce3d
00000340: 6762 163e dafb a23d a9cb 6fbd 391d 9ebd
00000350: 4fab 75bc 15f7 363e 8273 ecbd 2d43 b83d
00000360: 3d90 c0bd fe11 4e3d 9dd9 00bd a7ee 3d3e
00000370: b10d bd3c abe7 a63c 7f53 4fbd 3d15 c1bc
00000380: d4bf fcbd c4d8 78bd 4801 e73d c637 67bd
00000390: 07a4 a43d 2762 fd3c 5af8 f5bd 5030 a0bd
000003a0: 30b9 01be 9118 0ebd ca8e dcbd b39c f3bd
000003b0: 4dba cc3d 716a 9abd bc6c 9a3c 850e 523d
000003c0: a98c 403d 83f8 f9bd 1dc3 99bd 042a 9c3d
000003d0: c4fa 023d 0495 9dbc 27fe b6bc f8e4 8f3d
000003e0: f98c 81bb 1b58 ed3c 9faf 163e 5a9d d73d
000003f0: e33d e6bd 9052 103d f049 de3d 2513 45bd
0.024686135 -0.058685586 -0.021328462 0.13155057 0.043598115 -0.065039575 0.118569866 -0.12088528
0.094628 0.096204855 0.003519766 0.04204059 0.0062036654 -0.0052713593 -0.08143424 0.05594051
-0.04338795 0.08017123 0.07432211 -0.08689399 0.067103535 -0.13068864 -0.04130249 0.11065215
-0.04186097 -0.0900334 -0.11175341 0.019684298 -0.121779196 0.020875402 0.081189424 0.055544745
0.0716606 0.028491214 -0.12870745 0.11584175 0.069916725 -0.115141794 0.056717698 0.004433734
-0.10945999 -0.013552496 -0.0029331138 -0.04704095 -0.092729196 0.0035555398 -0.13524035 -0.06918828
0.1538829 0.16766332 0.020899942 0.07872083 -0.007966887 -0.080085665 0.050465215 0.06811425
-0.11572017 0.082901925 0.113072775 0.12619334 0.15530473 -0.008292958 -0.024171092 0.15596527
0.06222938 0.10382488 -0.035706438 -0.01756958 0.00022777828 0.0026143235 -0.08650096 -0.15376313
0.08591583 0.13934517 -0.11837494 -0.006406267 0.14565286 -0.0754171 -0.038157057 -0.07606318
-0.027335433 0.014045363 -0.10795911 -0.040136155 -0.03490262 -0.16176216 -0.1389988 -0.13862918
-0.01711102 -0.04731195 -0.12515283 -0.02275071 -0.13609189 0.064478435 0.13108467 -0.08086017
0.064421564 0.065195754 0.16278388 0.11860712 0.11794971 -0.15152538 -0.06193461 0.107079946
-0.004632848 0.023847736 -0.07330867 0.16181716 0.067721635 0.029119246 -0.113963805 -0.018973842
-0.055117328 0.011861107 0.10147967 -0.14454283 0.056135174 -0.115593605 0.09343836 0.022740634
0.07495809 -0.054827068 -0.049452048 0.050626934 0.15475546 -0.120981805 0.014680787 0.08555846
0.021894123 -0.03634044 -0.11584518 0.117442854 -0.0565392 -0.08377039 0.0356205 0.07416337
-0.04847268 0.060814776 -0.066718645 0.05301676 -0.13054065 0.08050486 0.13156685 0.022668177
-0.04401573 0.026595064 -0.17158377 -0.09384804 0.106800094 0.09020476 -0.011226606 -0.03286619
-0.0033197007 0.118332125 -0.097870626 -0.059829146 -0.046757985 0.13155176 -0.07451583 -0.034482397
-0.100870945 -0.0871532 0.123834826 -0.051267512 -0.12957971 0.15027179 -0.11467942 -0.0678097
-0.020575887 0.15802436 0.11321978 0.06371084 -0.1691222 -0.005944784 -0.010015836 0.10697844
0.11349459 0.068545945 -0.15284997 -0.045534145 0.041595537 -0.18360867 0.12539233 -0.14904256
0.09112765 0.15400282 0.16105261 0.1154446 -0.002793049 0.10129354 0.11517227 0.09204836
0.09007688 0.11476986 -0.033535816 0.06750589 0.15656692 0.15119116 0.0329251 -0.08875866
0.095692955 0.0062933997 0.04730177 -0.12936106 -0.017489128 -0.039864656 -0.11104735 0.10085723
0.14685975 0.07958193 -0.058543835 -0.077204175 -0.014994456 0.17867692 -0.11545469 0.08997188
-0.09402511 0.050310127 -0.031457532 0.1854807 0.023077818 0.02037414 -0.050616737 -0.023569698
-0.12341276 -0.0607536 0.11279541 -0.056449674 0.08039098 0.030930592 -0.1201026 -0.07821715
-0.126683 -0.034691397 -0.10769422 -0.118951224 0.099964716 -0.07539833 0.018850677 0.05128338
0.047009144 -0.12205603 -0.07507918 0.07625201 0.03197743 -0.019236095 -0.022337986 0.07026094
-0.003953573 0.028972676 0.14715432 0.10528059 -0.11242273 0.035234988 0.10853946 -0.04811396

fc1.bias f4 [64]
00000000: bb29 ee3b 77f7 80bb aeab c1bb 000d f13c
00000010: cc1b 09bb 7407 9d3b 9c9b f23a 48e9 2ebc
00000020: e020 94ba 85c4 d33b f39c 133b 39de c5bb
00000030: 477f 4db9 cd06 89bc 0b48 dabc bc42 b0bc
00000040: 8411 97bb b592 423b 45b3 4bb9 a2d7 b83b
00000050: 949d 053c d686 5ebb d8e0 693b 26a4 04ba
00000060: b64e 67bc 279a 2d3a c09b 7ebc e45c 3e3c
00000070: 337c ecbb aab7 d33b 7cee d0bb 20ba ab3c
00000080: 31f7 7fbb fece 83bc c08a 523b 9efb 2bbc
00000090: 4926 1dbb 0ca3 ce3b 5754 333c 1d11 583b
000000a0: 826f 3a3b 2833 64bc 759c f73c a302 b03c
000000b0: 22c7 94bc 8bf3 88bb 7529 34bc 9e7d 60bc
000000c0: 09c5 853b 562a 833c d6b5 a9bc bae6 1a3c
000000d0: 21eb 803c 1ece 1c3b dfce 1b3c b3c6 febb
000000e0: 914a aa3c 1ec4 bd3b bbc1 6f3c ff74 4abc
000000f0: f99b 463c 9bc1 193b 7a7a 323d 7e4a 893b
0.0072681583 -0.00393575 -0.0059103584 0.029425144 -0.002092111 0.0047921482 0.001850951 -0.010675736
-0.0011301301 0.006462636 0.002252397 -0.006038454 -0.00019597738 -0.016726876 -0.02664568 -0.021516196
-0.0046102423 0.0029689495 -0.00019426372 0.00564094 0.008155245 -0.003395488 0.0035686996 -0.00050598604
-0.014117887 0.0006622397 -0.015540063 0.011618827 -0.007216954 0.0064611034 -0.006376086 0.020962775
-0.003905725 -0.016089913 0.0032126158 -0.010497002 -0.0023979119 0.006306058 0.010945401 0.0032969185
0.0028447811 -0.013928212 0.030225972 0.021485632 -0.01816136 -0.004179423 -0.010996212 -0.0137018245
0.0040823263 0.016011398 -0.020716589 0.009454424 0.015737118 0.0023926566 0.009509771 -0.0077751516
0.02078751 0.0057912013 0.014633591 -0.012356996 0.012122148 0.0023461345 0.043573834 0.0041897884

fc2.weight f4 [2, 64]
00000000: c106 4b3d c5e3 703e 2757 7c3d 1aab 6a3e
00000010: 2a29 183e 3826 2cbe fd75 353e 2766 2b3e
00000020: ddd9 483d 4eb0 e3bd 37da 74be 2a0e 893e
00000030: 552e 223e cb41 223d b2c1 7f3e 4ad9 06be
00000040: 48aa 313e 2eb8 18be 9c09 403e aa77 e93d
00000050: a1e5 cc3d c816 b1bc 8826 5abd b0e4 9bbe
00000060: 44d9 8ebe 9dd8 223e 8080 19bd d741 783d
00000070: f345 7f3e f57a a23e 5f1b 0dbe 932d cf3c
00000080: 650c 2ebe e5ac 74be d118 313e 0247 b53d
00000090: dc4b 743e ed76 823e 7f08 fdbd 9d6a 92be
000000a0: bba9 87be 7dee eabd 3ee7 2f3e 433a 19bd
000000b0: bdac 7f3e 099a ab3d d2c2 273d a2cc 52bc
000000c0: 6e4d 71be daf7 66be 297c 673e c756 0dbe
000000d0: 3e5e a53e 72f0 34be 7918 80bd 7106 943e
000000e0: 0b9d 82be 8edb 83bd 5460 33bd 5894 30be
000000f0: 07dc 293e 444e 8b3e 46e1 a3bd 3dac f9bd
00000100: 412a f7bc 247d 25be 3aa3 a9bd 2ba2 903e
00000110: 3b33 8ebe 1fb6 743e e25e 5dbe e212 b53d
00000120: 183d 37be 9b7d c43b 3270 0ebb 2a8b 503d
00000130: db3a 043d fd57 49bd 4103 d73d 8b8f 3fbe
00000140: 139f f3bd b0e8 3abe 0271 e5bd e0b4 6c3e
00000150: 2832 f73c cd3d 933e 7212 c83c 4c4b 9cbd
00000160: 5492 1a3d 7c23 51be 64c9 eabd 2cd8 b9bd
00000170: 1237 87be 01dc 48bd b50f 4ebe dba4 043e
00000180: 5f8b 813e 03f9 92be 4c10 3fbe fdaf 373d
00000190: f76f 70bd 1bb1 fe3d 0217 693e e31c 3d3e
000001a0: a409 693e 2686 91be 5515 863e 5b61 713d
000001b0: ae97 6ebe e634 fbbd 27bc 7e3e fa3b 3dbe
000001c0: 5382 7e3e 8d69 adbe 2e45 363e 7d6c 843e
000001d0: 8352 683e 951a 813e da5a e03d 9edf aabc
000001e0: 48d8 713a 2c9f 7f3e 402d dc3d d34c 053e
000001f0: 680c 0d3c 0254 813e 75fd 653d 4034 b73d
0.049566988 0.23524387 0.061606552 0.22916833 0.14859453 -0.16811454 0.1772079 0.16738187
0.049035896 -0.11117612 -0.23911367 0.2676862 0.15837987 0.039613526 0.24976233 -0.13168827
0.17350113 -0.14914009 0.18753666 0.11399777 0.10004736 -0.021617308 -0.053259403 -0.30447912
-0.27900136 0.15902944 -0.037476063 0.060609665 0.24929027 0.31734434 -0.13779972 0.025290286
-0.16996916 -0.23894079 0.17294623 0.08851434 0.23857063 0.25481358 -0.12355136 -0.28596964
-0.26496682 -0.11471269 0.17178056 -0.03740908 0.24968238 0.08378989 0.04095728 -0.012866171
-0.23564693 -0.22555485 0.22605957 -0.13802634 0.32298464 -0.17669848 -0.06254668 0.28911164
-0.2551044 -0.06438361 -0.043793038 -0.17244089 0.1658784 0.2720815 -0.08001952 -0.12191055
-0.030171515 -0.16161019 -0.08283086 0.28248724 -0.2777346 0.23897599 -0.21618226 0.08841492
-0.17894399 0.0059964187 -0.0021734354 0.050913967 0.03228269 -0.049156178 0.104986675 -0.18707101
-0.118955754 -0.18252826 -0.11203195 0.23115873 0.030175284 0.28758088 0.024422858 -0.07631549
0.037737206 -0.20423692 -0.114641935 -0.09074435 -0.26409203 -0.049037937 -0.2012318 0.12953512
0.25301644 -0.28705606 -0.1865856 0.04484557 -0.058700528 0.12436124 0.22762683 0.1846805
0.22757584 -0.2842266 0.2618815 0.058930736 -0.23300049 -0.12265949 0.24876462 -0.1847991
0.24854402 -0.3386959 0.17799827 0.2586402 0.22687726 0.25215593 0.109548286 -0.020858582
0.0009225649 0.24963063 0.10750818 0.13017587 0.008608915 0.25259405 0.05614992 0.08945513

fc2.bias f4 [2]
00000000: 3b5a bebc 3c5a be3c
-0.023236385 0.023236386
