train_result/twibot20/classifier.pth (torch, 68017 bytes, 4 tensors)

fc1.weight f4 [64, 256]
00000000: 72e8 1b3d bcb4 6cbd f969 033c f808 1d3e
00000010: 8c96 7e3d 3240 4fbd 8a53 003e 234f ebbd
00000020: e434 df3d 5fc0 dd3d 3c67 ab3c 9633 d53c
00000030: 160b febb f5e9 89bc 2371 44bd a7b1 393d
00000040: cac7 2ebd a355 c03d e760 493d 0f85 57bd
00000050: bc2e a03d 3bd6 1dbe 413d b13b 7d62 c73d
00000060: bb80 4abd 2f48 b0bd 3294 a4bd 36a6 fc3c
00000070: 8f91 14be d1b1 3c3d 5fe6 cf3d 26fd 7a3d
00000080: 8488 543d a8b1 893c c2fa 05be 23f2 113e
00000090: 0385 643d 8a14 2cbe 4990 a13d b9fa 863c
000000a0: 4bef f2bd f83f 213b 06c9 073c 6cce b4bc
000000b0: bd13 afbd b6cf 58bc 533b e6bd cab5 6abd
000000c0: 8a39 fe3d 9590 393e 7617 1abc 51af 803d
000000d0: df85 0fbb be37 9abd faa1 563d 55b5 c93d
000000e0: 7982 efbd ffb5 c83d d582 013e 8b11 fa3d
000000f0: 4bdb 043e 6acc 4abc fb65 d6bc 3f5b 233e
00000100: e8f4 8e3d f007 083e 3043 38bd 47b0 dabc
00000110: 6436 ddbc e8d6 cd3b a58a 7cbd cd3d 38be
00000120: 3cdd bb3d 2b49 0d3e aa75 02be 1dc7 51bc
00000130: d185 083e eeae 35bd e52d 363c 3cc1 cdbc
00000140: bf5c 3dbd 70d4 193d e6d1 ecbd c25a b0bd
00000150: 9166 13bc 4709 20be 613a 0fbe 0d65 fbbd
00000160: 6e5e 553a ae4d 6bbd b139 fdbd 1b49 86bc
00000170: 0f52 d1bd 1d86 673d fb54 063e 9823 5cbd
00000180: fbf6 4c3d 579a b13d 04ae 233e d404 123e
00000190: 503e 003e d1c2 10be c97f 52bd cd84 c23d
000001a0: 7781 f93a 96c5 233d 2516 70bd 1744 2c3e
000001b0: a67c 263d 1f3f 133d 7d6e babd aa6e 08bc
000001c0: ad06 56bd 6b91 ef3c 2f4c ee3d 7dc2 13be
000001d0: 512f 143d fb6e f7bd 89c2 ad3d 589a d43c
000001e0: 896f af3d 702e 57bd 4153 21bd c339 ac3d
000001f0: e990 1a3e 9204 b1bd f52c 1e3d 6825 dc3d
00000200: 4527 d23c 414e cdbc ae95 98bd 85cc db3d
00000210: 2b5d 5bbd 213a a1bd 0dd6 1d3d 9ce3 b83d
00000220: d2fa 23bd 06ab 913d 84f8 b5bd 151b 643d
00000230: a458 1dbe 7ddc a93d bdf7 053e fef2 403d
00000240: 46e7 1cbd bf19 f53b 8073 1cbe fb7d 04be
00000250: b8e2 0c3e 8cb4 ab3d 021f 24bc 5f85 de3b
00000260: 0207 153b 8b6a 123e f303 aabd 5442 15bd
00000270: da91 e8bc acef 133e 24ab 85bd ae01 92bc
00000280: 4437 dfbd 2464 9cbd 6b83 203e 863d 44bd
00000290: cf94 ffbd a28d 293e 78cc c7bd 6ffd 95bd
000002a0: 07c1 8a3c 51b5 3c3e 02d2 d83d ee69 283d
000002b0: a0f0 1cbe 9cd2 85bc 52b1 70bc 628f 053e
000002c0: d222 eb3d 666b 9f3d 2d5b 11be abaa 32bd
000002d0: 7bd4 1d3d 946d 41be 9b10 023e 9515 0fbe
000002e0: 7f07 d63d 7de8 243e b02a 333e 0ca9 073e
000002f0: 0c68 92bc 0423 013e 9f69 f23d 2352 dc3d
00000300: 6b82 063e 2d7e da3d 5823 38bd ded1 893d
00000310: c938 213e 3ac2 2a3e 09ce 7c3d a134 b3bd
00000320: a351 d23d c141 983b 5565 e43c 1c55 0abe
00000330: 296e b5bc f047 85bd 8309 8bbd a912 f13d
00000340: a701 103e ed81 ab3d b750 8fbd 5d69 84bd
00000350: 4809 b5bc f69d 673e c4dd 97bd 5a61 8c3d
00000360: 45d8 d5bd a629 793d 6353 05bd 2693 3e3e
00000370: d786 3f3d f6cc 1b3c 07ed 9ebd f7c3 c2bc
00000380: 5cd1 fabd dcf2 5dbd c247 cd3d f2ff 01be
00000390: 24e2 b63d 62c1 aabc 2576 bcbd 763d 3ebd
000003a0: 84ae 0bbe 2b78 e8bc 904e dfbd 42f4 dbbd
000003b0: ded2 da3d bebc a9bd c275 093c 55a1 4f3d
000003c0: 9334 573d bd9b 1cbe f5e3 a0bd 1a0e 843c
000003d0: 51e8 323d d431 52bd 7c96 aabc b474 cb3d
000003e0: 580a 433c 71d3 6b3c 38b6 1e3e 0656 f53d
000003f0: cf23 02be c141 053b c02e 8a3d 8de2 65bd
0.038063474 -0.05778955 0.008020871 0.15335453 0.06215529 -0.05059833 0.12531868 -0.114897035
0.1089876 0.108277075 0.02092325 0.026025575 -0.0077527864 -0.016835192 -0.047959458 0.045335438
-0.042671002 0.09391334 0.04916468 -0.05261713 0.07821414 -0.15413754 0.0054089134 0.09735582
-0.049439173 -0.08607518 -0.080360785 0.030840974 -0.14508651 0.046068016 0.10151362 0.061276577
0.051888004 0.016808346 -0.13083938 0.14252524 0.055790912 -0.1680471 0.07888848 0.016476976
-0.11862048 0.0024604779 0.008287674 -0.022071086 -0.08548687 -0.013233116 -0.11241784 -0.057302274
0.124133185 0.1812156 -0.009405008 0.06283439 -0.0021899862 -0.07530163 0.052400567 0.098490395
-0.116948076 0.09800338 0.12647565 0.12210377 0.12974279 -0.012377838 -0.026171675 0.15952776
0.06980306 0.13284278 -0.04498595 -0.026695384 -0.027003475 0.0062817223 -0.06165566 -0.17992325
0.091730565 0.13797443 -0.12740198 -0.01280382 0.13332297 -0.04435628 0.011119341 -0.025116555
-0.046231028 0.03755611 -0.115634724 -0.08611061 -0.008996622 -0.15628539 -0.13987114 -0.12275133
0.00081393763 -0.057447128 -0.123645194 -0.016392281 -0.102207296 0.056524385 0.13118355 -0.053744882
0.050040226 0.08672016 0.1598435 0.14259654 0.1252377 -0.14136817 -0.051391397 0.09497986
0.0019035776 0.039983355 -0.05861487 0.16822849 0.040646218 0.03594887 -0.09103105 -0.008327166
-0.05225246 0.029244145 0.116356246 -0.1442966 0.036177937 -0.12081715 0.0848437 0.025952503
0.085661955 -0.05253452 -0.039386038 0.08409455 0.15094341 -0.0864345 0.038617093 0.10749322
0.02565349 -0.025061728 -0.07450424 0.107323684 -0.05355565 -0.07872415 0.038534213 0.09027788
-0.040034123 0.07112698 -0.08885291 0.05568989 -0.15365845 0.08294008 0.13082786 0.047106735
-0.038306497 0.007479876 -0.15278435 -0.12938683 0.13758361 0.08384046 -0.010017158 0.0067908014
0.0022739773 0.14298455 -0.083015345 -0.03644021 -0.02838986 0.14446896 -0.06526783 -0.017823067
-0.10899213 -0.07636288 0.15675132 -0.047910236 -0.12479555 0.16557935 -0.09755796 -0.07323729
0.016937746 0.18428542 0.10586931 0.041116647 -0.15326166 -0.016335778 -0.014690714 0.13042977
0.11481251 0.077841565 -0.14194937 -0.043619793 0.038532715 -0.18889457 0.12701647 -0.13973077
0.104506485 0.16104312 0.17496753 0.1324808 -0.017871879 0.12611014 0.11836552 0.10757854
0.13135688 0.10668597 -0.04495558 0.06729482 0.15744318 0.16675654 0.061719928 -0.087502725
0.10269477 0.0046465104 0.02788035 -0.13509029 -0.022147255 -0.065078616 -0.067889236 0.11771137
0.1406313 0.08374391 -0.06997817 -0.06465409 -0.022099152 0.22618851 -0.07415345 0.06854506
-0.10441641 0.060830735 -0.032550227 0.1861082 0.046759453 0.009509316 -0.07760053 -0.023775084
-0.122469634 -0.054186687 0.10023452 -0.12695292 0.08929852 -0.020844165 -0.09202222 -0.046445332
-0.13640791 -0.028377613 -0.109036565 -0.10739948 0.10684751 -0.08287953 0.008389892 0.050690968
0.052540373 -0.15293784 -0.07855979 0.016120005 0.043678585 -0.05131705 -0.02082371 0.09934369
0.011904322 0.014393673 0.15499198 0.11979298 -0.12708972 0.0020333382 0.06747198 -0.05612426

fc1.bias f4 [64]
00000000: 5568 923c d6d2 72bc 9f39 783b e5f5 c03c
00000010: b094 de3b 859f 90bb 1eb6 733b f5ef 18bc
00000020: b545 16bc 07c9 c73b 98b8 1f3c 8938 803b
00000030: 79e0 cdbb 06e9 19bc 947c b5bc eebd c6bc
00000040: 1ca8 b5bb 08d0 333c 57ec 0a3c 9fc6 673c
00000050: c5f2 d73a 0350 94ba 0366 bc3b 64d4 413c
00000060: 0977 8abc f98d 15bc 9903 8fbc d8f9 163b
00000070: 4862 6cbc fea1 ab3b 372b 8dbb 9c62 5b3c
00000080: be92 19bc c18b c7bc 1b4c 993b ad74 a23b
00000090: 214a 39b9 6af9 fcba 054c 443c 1714 8d3b
000000a0: 25d8 58ba c0ed 00bc f7d6 c13c 6740 083d
000000b0: 42f8 8bbc a578 17bc cfeb 8aba 6089 2cbc
000000c0: cbd2 3c3c 2411 ad3c 25ca e0bc c207 ad3b
000000d0: 30f7 883b 8ba1 223b 3d74 8f3c aa3d 89bc
000000e0: c73f d53c 3a1e 20bc 36b7 ab3b 7433 53bc
000000f0: 4056 1a3c adb5 023c 7fb8 dd3c d078 d439
0.017872015 -0.014820775 0.0037876142 0.023554752 0.0067926273 -0.0044135475 0.0037187408 -0.009334554
-0.009171893 0.0060969624 0.0097486 0.0039129895 -0.0062828627 -0.009393936 -0.02215413 -0.024260487
-0.005543722 0.0109748915 0.008479199 0.014146476 0.0016475549 -0.0011315349 0.0057494654 0.011830423
-0.016902464 -0.009128087 -0.01745777 0.0023037102 -0.014427729 0.005237817 -0.00430813 0.0133902095
-0.009373365 -0.024358632 0.004678262 0.0049577565 -0.0001767059 -0.0019300405 0.011981015 0.0043053734
-0.0008271954 -0.007869184 0.023662074 0.033264544 -0.017086152 -0.0092450725 -0.0010598841 -0.0105308
0.011524866 0.021126337 -0.02744014 0.005280466 0.0041798577 0.0024815525 0.017511481 -0.016753037
0.026031388 -0.009772832 0.0052403463 -0.012890685 0.009419978 0.007977885 0.027065514 0.00040525803

fc2.weight f4 [2, 64]
00000000: f13d 703d 3b47 713e 9030 993d 59a3 6a3e
00000010: 7f96 1b3e 1746 26be 2025 2a3e e03e 2d3e
00000020: b998 2d3d 4757 e3bd 708a 73be 1fc6 863e
00000030: 28ac 163e 4997 4a3d 9788 813e 3985 08be
00000040: 234c 443e a4aa febd ac3d 453e cec1 ca3d
00000050: ae85 d23d 3ca0 a1bc 507a 60bd d773 9ebe
00000060: 5c04 8fbe 1562 273e a2b4 10bd 47bf 633d
00000070: f104 7b3e 7ab1 a33e 94d1 06be aad7 463d
00000080: 22d8 38be 42d9 71be 194b 413e 0d75 c43d
00000090: 1900 6f3e 682b 7d3e b947 01be 1d96 91be
000000a0: 3c1a 87be 1c74 d8bd c61e 343e 99f1 78bd
000000b0: 7caa 853e 6958 bb3d 67c5 233d 6c13 13bc
000000c0: 6e2c 6bbe a5a4 6ebe 9a93 5d3e 3bbf 0ebe
000000d0: 2b92 a33e 4021 2fbe cd41 9abd 97a7 953e
000000e0: ca42 7bbe deaf 58bd 1360 01bd e659 33be
000000f0: 9e66 223e 29f7 903e b5c3 82bd bb9c d3bd
00000100: 59cc 20bd 9ae0 25be 37a8 c4bd 1ba6 903e
00000110: f4e9 8fbe fed5 6e3e 040e 52be 4a61 b13d
00000120: cf6c 30be 92ec be3b a05d 62bb 23cb 623d
00000130: 5f43 323d 6cad 71bd 4964 d03d 9ee3 3dbe
00000140: 5671 0cbe 844b 54be 59d9 efbd e70f 7c3e
00000150: fcb1 e03c 4d46 923e e3b9 d43c 070f 92bd
00000160: 3beb 1b3d f5ac 55be 3f2f efbd df96 afbd
00000170: a916 85be 858f 52bd 8259 54be 2da9 d93d
00000180: 3df1 863e e162 94be 9642 4fbe 0754 193d
00000190: 2041 5bbd 101b 073e 7eda 6b3e cc73 3b3e
000001a0: 88ea 673e b224 96be 93f9 833e 6a8c a83d
000001b0: 0640 7abe 8479 05be 7ebb 7f3e 9537 41be
000001c0: 5861 783e 3193 a9be bf2d 403e b620 853e
000001d0: 84ea 6b3e c865 7c3e 3284 fa3d 78f2 c4bc
000001e0: ff56 10bc 2edd 733e 022d c33d 5e12 083e
000001f0: d330 823c 1456 773e 6cc2 233d d324 913d
0.058652822 0.23562329 0.07479966 0.22913875 0.15194128 -0.16237675 0.16615725 0.16918516
0.042381976 -0.11100631 -0.23783278 0.2632303 0.1471411 0.049460683 0.25299522 -0.1333207
0.19169669 -0.12434891 0.19261807 0.099002466 0.102794036 -0.019729726 -0.054804146 -0.30947754
-0.27933013 0.16346009 -0.035328515 0.05560234 0.24513604 0.3197134 -0.13165885 0.048545517
-0.18051198 -0.23618034 0.18876304 0.09592638 0.23339881 0.2472359 -0.12625016 -0.2843484
-0.26387203 -0.10569021 0.17589864 -0.06077728 0.26106632 0.09147722 0.03998318 -0.0089767985
-0.22966167 -0.23304994 0.21638337 -0.13940136 0.31947455 -0.17102528 -0.07532082 0.29229423
-0.24537197 -0.052902095 -0.031585764 -0.17514762 0.15859458 0.28313568 -0.063849844 -0.10332628
-0.03925738 -0.1619896 -0.09602397 0.28251728 -0.2810818 0.23323819 -0.20513159 0.086611345
-0.17229007 0.005826541 -0.0034540668 0.055369508 0.04352128 -0.05900328 0.10175378 -0.1854386
-0.13715109 -0.20731932 -0.11711378 0.24615441 0.02742862 0.2856926 0.025967544 -0.071317725
0.03806613 -0.20866759 -0.11678933 -0.08573698 -0.2599385 -0.051406402 -0.2073727 0.10627971
0.26355925 -0.2898169 -0.20240244 0.03743365 -0.053528905 0.13193917 0.23032567 0.18305892
0.2264806 -0.2932487 0.25776348 0.08229907 -0.24438486 -0.13034636 0.24973866 -0.18868859
0.24255884 -0.3312011 0.18767451 0.2600152 0.2303868 0.24648201 0.122322455 -0.0240414
-0.008809804 0.23814842 0.09530069 0.13288257 0.015892422 0.2415393 0.039980337 0.07087102

fc2.bias f4 [2]
00000000: 6dac b3bc 6bac b33c
-0.021932805 0.021932801
