train_result/twibot20/static_cd_no_cl_2/classifier.pth (torch, 68017 bytes, 4 tensors)

fc1.weight f4 [64, 256]
000000 53 d9 f8 3c ed c3 48 bd 23 f2 47 bc 7f 26 1a 3e
       0.030377066 -0.049014974 -0.012203726 0.15053748
000010 42 5b 3e 3d a6 03 8e bd af 3c c0 3d c2 43 05 be
       0.04647375 -0.0693429 0.093865745 -0.13014129
000020 44 f7 c7 3d 84 d2 e3 3d 53 79 e2 3b b0 60 36 3d
       0.09763959 0.11124137 0.0069114356 0.044525802
000030 8d f5 14 3c 8d cc 28 bc 50 d0 aa bd ba 17 8a 3d
       0.009091747 -0.010302675 -0.08340514 0.06742807
000040 fa cc 5c bd 22 c5 bb 3d 15 4e 28 3d 21 5c 81 bd
       -0.05390642 0.091684595 0.04109009 -0.063164
000050 1a 1b 92 3d 8e 7f 01 be 2c fe 4c bd 16 ff d1 3d
       0.071340755 -0.12646315 -0.050047085 0.10253732
000060 68 b2 51 bd 05 4c a5 bd b3 b1 01 be 27 fa d9 3c
       -0.051195532 -0.0807114 -0.12665443 0.02660854
000070 22 51 ee bd 07 5e 55 3c 48 bd c9 3d a5 02 a6 3d
       -0.116365686 0.013022906 0.09850556 0.08105973
000080 7c cb 6e 3d 7c f2 d4 3c 19 23 01 be df b3 11 3e
       0.058299527 0.025994532 -0.12611045 0.14228772
000090 22 63 97 3d b4 e9 d1 bd ca e8 83 3d 37 b2 c8 ba
       0.07391955 -0.102496535 0.06440885 -0.0015311901
0000a0 47 5f da bd 70 b4 2a 3c 75 da 6e 3b c5 94 8d bd
       -0.10662704 0.010418996 0.0036446129 -0.06913141
0000b0 d0 ce bf bd 75 0a 90 bc 82 d6 09 be 98 a7 76 bd
       -0.09365618 -0.017583111 -0.13460734 -0.060218424
0000c0 e8 c2 16 3e 00 e9 31 3e b0 91 4e bc 95 e9 ac 3d
       0.14722788 0.17374039 -0.012607977 0.0844299
0000d0 26 4c 82 3c a0 06 b0 bd 2d 1d eb 3c 1f 51 a9 3d
       0.015905451 -0.085950136 0.028700436 0.08267426
0000e0 43 64 e2 bd ae 8e c1 3d 4b df fd 3d 4d 89 ef 3d
       -0.1105428 0.09451042 0.123961054 0.1169611
0000f0 61 a8 26 3e 66 dd 22 bc 70 50 1b bd e5 e3 23 3e
       0.16275169 -0.009940481 -0.037918508 0.16004904
000100 3b 05 a7 3d 99 0d d0 3d ad b0 ed bc 0a ef b3 bb
       0.081552945 0.101588435 -0.02901491 -0.005491142
000110 ab fa 8e b9 ae 27 ce ba 25 3c a4 bd d8 ac 30 be
       -0.00027271113 -0.0015728378 -0.08019284 -0.17253435
000120 30 3e ae 3d 96 6d 07 3e 04 8c de bd 8b 75 72 3b
       0.08507955 0.13225397 -0.108665496 0.003699633
000130 28 83 1b 3e 24 98 91 bd cd 63 22 bd 02 15 59 bd
       0.15186751 -0.07109097 -0.03964596 -0.05299855
000140 37 ee 19 bd 75 28 c9 3c 7d 96 e2 bd dc 41 f1 bc
       -0.037580695 0.024555424 -0.110638596 -0.02945035
000150 d1 87 e5 bc 87 4d 1d be f8 4d f6 bd 58 b3 ff bd
       -0.028018864 -0.15361606 -0.1202659 -0.12485379
000160 af 6b 39 bc 15 ad 00 bd 93 14 f3 bd cc fa a2 3b
       -0.011317178 -0.031415064 -0.118691586 0.004973745
000170 6c af 05 be b6 da 90 3d 00 2c 0d 3e 8e f8 7d bd
       -0.130552 0.07072966 0.13786316 -0.06200462
000180 18 40 83 3d 14 bf aa 3d e7 7c 28 3e 23 de 0e 3e
       0.06408709 0.083372265 0.16453896 0.13951926
000190 c2 4d cf 3d 0d bd 22 be c3 5c 53 bd 55 d2 dd 3d
       0.10122253 -0.1589243 -0.051602136 0.10831133
0001a0 b5 8c cb b9 97 27 e5 3c 92 a7 8b bd 36 91 2e 3e
       -0.00038824012 0.02797298 -0.06819071 0.17047581
0001b0 f6 64 89 3d 0d 85 3a 3d 26 ba cd bd 83 79 6e bc
       0.0670871 0.045537043 -0.100452706 -0.014555338
0001c0 f8 3c 7d bd eb 07 c3 3c 61 52 d9 3d c1 5a 0f be
       -0.061825722 0.023807487 0.10611416 -0.13999464
0001d0 c0 29 26 3d 68 7f cb bd 65 96 a4 3d 22 47 1d 3d
       0.04056716 -0.0993641 0.08036498 0.038397916
0001e0 15 f3 b6 3d da 17 18 bd 29 f4 80 bd f7 18 63 3d
       0.08933083 -0.03713212 -0.0629657 0.05544373
0001f0 2c 37 16 3e d5 7f e6 bd 93 bd 00 3d c1 11 b7 3d
       0.14669484 -0.11254851 0.031430792 0.08938933
000200 54 d5 d1 3c 69 6a 05 bd da b0 cc bd 39 53 f5 3d
       0.025614418 -0.032572184 -0.09994669 0.11978764
000210 fe dc 76 bd 6e 0d ee bd 68 27 ff 3c 47 51 a4 3d
       -0.06026935 -0.11623655 0.03114672 0.08023315
000220 a4 6e eb bc 20 5d 92 3d 70 55 ca bd aa 49 5b 3d
       -0.028739281 0.071466684 -0.09879577 0.05353705
000230 2e 11 17 be 68 2c a2 3d 5a 95 ff 3d 9d 7e b6 3c
       -0.14752647 0.07918626 0.124796584 0.02227717
000240 18 00 03 bd d2 30 f1 3c 39 21 2e be 49 f2 ee bd
       -0.03198251 0.029442225 -0.17004861 -0.11667306
000250 92 ef ea 3d 2b 9e ad 3d 59 7b 24 bb 64 f4 0b bc
       0.11471476 0.08477434 -0.0025097935 -0.008542154
000260 af 73 95 bb c0 88 14 3e 88 4f 96 bd e5 64 72 bd
       -0.0045609097 0.14505291 -0.07339388 -0.05917825
000270 c8 a8 4f bd 68 c0 0f 3e 19 94 a9 bd 0c a6 14 bd
       -0.05069807 0.14038241 -0.082802005 -0.036291167
000280 9e d2 ca bd d6 9d 98 bd ed 43 ee 3d 03 de 8e bd
       -0.09903453 -0.0745198 0.116340496 -0.06975939
000290 c1 3c 02 be 76 15 2f 3e a0 66 f4 bd 4a e0 9c bd
       -0.12718488 0.1709803 -0.11933637 -0.07659967
0002a0 4b 67 47 3c ab 37 27 3e 44 2a 07 3e 2f ae 8f 3d
       0.012170623 0.1632983 0.13199717 0.07015645
0002b0 f4 bd 27 be a7 0d 59 b9 3c 2b d4 bb d5 cf 04 3e
       -0.16381055 -0.00020699819 -0.0064748805 0.12969907
0002c0 52 c4 fb 3d 1e ef 8d 3d 80 03 2c be b2 2d 8f bd
       0.122933045 0.069303736 -0.1679821 -0.069911376
0002d0 fe fc 2c 3d 05 5c 35 be 9b c6 f9 3d 54 80 21 be
       0.04223346 -0.17710884 0.12196084 -0.1577161
0002e0 bd ff d5 3d 92 3e 1a 3e a3 2f 22 3e 61 1a e3 3d
       0.10449169 0.15062931 0.15838484 0.11089016
0002f0 77 01 65 bc 13 ae c3 3d 07 2e 0c 3e 70 48 ee 3d
       -0.0139774 0.095546864 0.13689433 0.1163491
000300 56 62 03 3e 31 79 e6 3d f4 f6 00 bd 86 c7 7f 3d
       0.12830481 0.11253584 -0.031485513 0.06244614
000310 85 c8 1b 3e 62 b6 2b 3e 61 50 89 3d 9a a7 c6 bd
       0.15213211 0.16768792 0.06704784 -0.09699936
000320 09 22 16 3e 04 49 06 bb 9a 57 85 3d f6 b6 f5 bd
       0.14661421 -0.0020490298 0.06510849 -0.11997788
000330 d2 d2 16 bc 14 5d 0b bd e2 1f c7 bd 1a c7 ee 3d
       -0.009205537 -0.034024313 -0.09722878 0.11659069
000340 04 05 01 3e 07 93 91 3d 2a 8e 86 bd 42 13 80 bd
       0.1259957 0.07108121 -0.065700844 -0.06253673
000350 06 84 46 bc 3e cd 3e 3e c3 9a 9d bd df 04 b2 3d
       -0.012116438 0.18632981 -0.07695534 0.08692335
000360 2b 29 d6 bd 9d 38 5d 3d 6e eb 88 bc 4b f2 45 3e
       -0.10457071 0.05400907 -0.016713824 0.19330709
000370 e1 11 b9 3c 79 74 ef 3c bf f9 4d bd d2 ac ce bc
       0.022591533 0.029230343 -0.050287005 -0.025228892
000380 9b 3b 01 be 9b 01 a6 bd 49 69 d2 3d fc 9f ab bd
       -0.12620394 -0.08105775 0.10273988 -0.08380124
000390 11 cf 9b 3d ea e8 93 3a 7c f0 ca bd 28 a9 5c bd
       0.07607854 0.0011284624 -0.0990915 -0.053872257
0003a0 f5 4f 26 be 5a 11 7f bd e0 b5 01 be ab ff f0 bd
       -0.16241439 -0.062272407 -0.12667036 -0.11767515
0003b0 d3 68 a1 3d 46 86 a4 bd ef 8a b0 3c 29 9e b6 3c
       0.07881322 -0.08033423 0.021550624 0.022292214
0003c0 5b 1e bb 3c 3d 58 f7 bd 4a 2d 98 bd a9 2f f7 3c
       0.022841623 -0.12077377 -0.07430513 0.030174093
0003d0 4a d0 05 bb 08 29 16 bd 84 d5 0b bd 56 49 d2 3d
       -0.002041834 -0.036660224 -0.03413917 0.10267894
0003e0 7e 9b 46 bb f8 ec 86 3c bb 8e 18 3e 11 f8 05 3e
       -0.0030305083 0.016470417 0.14898197 0.13082911
0003f0 37 15 d0 bd 1b 8a 0f 3d dc 3b a2 3d 2f 60 9c bd
       -0.101602964 0.035043817 0.079215735 -0.07635533

fc1.bias f4 [64]
000000 03 cf 0f 3c 31 37 dd ba 33 09 00 bc 9b 19 a7 bc
       0.008777383 -0.001687741 -0.007814693 -0.020397952
000010 f0 dd 02 ba 99 13 11 3c de 59 47 3b e5 44 37 bc
       -0.0004992178 0.00885477 0.0030418555 -0.011185859
000020 85 61 48 bc b9 21 b4 3b 5e d2 01 3c ec b2 39 bc
       -0.012230282 0.005497184 0.007923691 -0.011334162
000030 59 a4 aa ba ee 18 21 bc 20 e5 4e bc 4a ac 04 bd
       -0.001301895 -0.009832604 -0.01262787 -0.03239087
000040 ce 23 7b bb 2f b2 43 3c bf d8 b2 bb 9a 8b 09 3c
       -0.0038320902 0.011944338 -0.005457967 0.0083951
000050 73 d8 ce 3b e7 c4 49 3b 73 a0 db 3a b4 79 df 3b
       0.006312424 0.003078753 0.0016756192 0.006819928
000060 95 c6 98 38 64 bb d8 bb 5a 5f 87 bc c5 f9 8e 3b
       7.2849136e-05 -0.0066141356 -0.01652496 0.004363271
000070 b4 fb 04 bc 0b 38 0f 3c 5a a8 b7 bb e4 dd e3 3c
       -0.008116651 0.008741389 -0.005604786 0.027815767
000080 61 64 8f bb fd 68 85 bc eb 5b a4 3b ec fd b4 bb
       -0.00437598 -0.016285414 0.0050158403 -0.005523434
000090 9c 09 0f 3c d9 0d 3c bc cd 55 f6 3b 1a 5a 71 3c
       0.008730318 -0.011477911 0.0075175525 0.014730955
0000a0 44 12 9f 3a 62 80 9d bc 13 7c 6b 3c f5 fb 05 3d
       0.0012136181 -0.019226257 0.014372843 0.032710988
0000b0 e1 63 3b bc a1 85 47 bc d5 e0 29 bc 4f d3 5b bc
       -0.011437387 -0.012177856 -0.010368546 -0.013417079
0000c0 44 e4 b4 3b 0b e5 7c 3c 69 34 4e bc 28 1a 3e bb
       0.0055203754 0.0154354675 -0.012585738 -0.002900729
0000d0 de 3f 89 3c 15 a4 fb 39 25 73 bc 3b 39 0a 54 bc
       0.016754087 0.000479967 0.005751031 -0.01294189
0000e0 37 c5 07 3d a3 47 aa ba 8c 20 24 3c b1 c5 0e bc
       0.033147063 -0.001299132 0.010017525 -0.0087141255
0000f0 a1 e1 5a 3b 2c 1b 7d 3b 5e 8b ff 3c 9a c7 bd ba
       0.0033398645 0.0038620932 0.031194385 -0.0014479042

fc2.weight f4 [2, 64]
000000 41 1c 71 3d f5 96 72 3e 9f c4 63 3d 38 1e 86 3e
       0.058864836 0.23690398 0.055607434 0.2619493
000010 e6 48 0b 3e d6 41 2f be d1 f3 31 3e da 13 2a 3e
       0.13602027 -0.17114958 0.17378165 0.16609135
000020 57 32 32 3d 27 b5 de bd f2 35 74 be f7 ec 86 3e
       0.04350504 -0.10874396 -0.23848704 0.26352665
000030 61 e1 17 3e 64 31 37 3d 02 cc 8b 3e f8 c5 0a be
       0.14832069 0.044724837 0.27304083 -0.13552082
000040 1c cc 3c 3e a6 15 06 be 31 2a 3b 3e 0b d4 e8 3d
       0.18437237 -0.13094196 0.18277813 0.11368569
000050 f3 99 db 3d 09 94 ac bc 47 9a 47 bd 65 b7 9a be
       0.10722723 -0.021066682 -0.048731115 -0.30218044
000060 2e 61 8f be a2 9b 25 3e 23 ac 16 bd bc 62 5d 3d
       -0.2800383 0.1617265 -0.036785256 0.05404924
000070 c7 e3 82 3e 8d 4a a4 3e 77 f3 04 be 93 1a 1f 3d
       0.25564405 0.32088128 -0.129835 0.038843703
000080 e4 c1 30 be 8b 11 68 be c7 c3 3c 3e 4b 43 c2 3d
       -0.17261463 -0.22662942 0.18434058 0.09485491
000090 dc c1 80 3e 34 1b 7b 3e 41 e8 f6 bd a3 3b 96 be
       0.25147903 0.24522096 -0.12056018 -0.29342374
0000a0 a8 85 87 be 97 4a e6 bd da 5f 31 3e a8 3a 43 bd
       -0.2646916 -0.11244696 0.1732172 -0.04766336
0000b0 3a af 86 3e 5b fa a2 3d a3 de 22 3d 44 b6 bc bc
       0.26305562 0.07957908 0.039763104 -0.02303613
0000c0 af 73 6b be 41 fd 6f be 3d d1 75 3e 2c 40 07 be
       -0.22993349 -0.23436452 0.240056 -0.13208073
0000d0 7c 90 a7 3e fd 13 2a be 4d 4c 90 bd 10 58 97 3e
       0.3272742 -0.16609187 -0.07045803 0.29559374
0000e0 58 33 84 be 9c 8a 89 bd a9 c7 1a bd 20 5a 31 be
       -0.25820422 -0.06715891 -0.037788067 -0.17319536
0000f0 fa eb 15 3e c7 ec 80 3e 2e a1 56 bd 41 6d e2 bd
       0.14640799 0.25180647 -0.052399807 -0.11055995
000100 ae aa 21 bd 55 30 27 be ed 59 9d bd 09 b3 7f 3e
       -0.039469413 -0.16327031 -0.076831676 0.2497064
000110 1c c3 87 be c0 d1 77 3e b8 dc 59 be 74 b7 b7 3d
       -0.26516044 0.24201107 -0.21275604 0.08970538
000120 36 93 31 be 5f 95 69 3b 0c 7e 37 bb df 94 61 3d
       -0.17341313 0.003564201 -0.0027998714 0.055073615
000130 b7 6e 2d 3d 99 47 5e bd a9 56 a7 3d dd a2 3b be
       0.042341914 -0.0542675 0.08170826 -0.18323846
000140 46 f1 04 be 37 8b 4d be 5e b2 db bd b7 06 6d 3e
       -0.12982664 -0.20072637 -0.1072738 0.23147093
000150 f1 60 bc 3c a8 f5 92 3e 2a fa a2 3c b2 00 a1 bd
       0.022995444 0.28703046 0.019894678 -0.07861461
000160 87 d1 1e 3d 81 e6 53 be 94 33 ec bd 88 68 ac bd
       0.03877404 -0.20693399 -0.11533275 -0.08418375
000170 da 77 8a be b6 58 57 bd 9d 37 56 be bc 87 ed 3d
       -0.27044564 -0.052574836 -0.20919652 0.11598155
000180 25 e6 82 3e ab 46 99 be 43 bb 4a be 5a b7 1d 3d
       0.2556621 -0.29936728 -0.19797997 0.038504936
000190 c9 a7 92 bd 36 2b 09 3e d1 06 66 3e fe be 44 3e
       -0.07160909 0.1339539 0.22463538 0.19213483
0001a0 72 c1 68 3e 20 af 92 be 00 59 85 3e db b0 8d 3d
       0.22730044 -0.28649235 0.26044464 0.06918498
0001b0 7d 49 7c be 38 95 f2 bd 34 f5 7f 3e fb d1 32 be
       -0.24637409 -0.118448675 0.24995881 -0.17462914
0001c0 98 a8 78 3e dd e6 a8 be 1c f0 27 3e 37 61 81 3e
       0.24283063 -0.32988635 0.16400188 0.25269482
0001d0 1a ee 63 3e 83 58 77 3e c4 8e f0 3d 02 fa df bc
       0.22258797 0.24154858 0.117459804 -0.027340893
0001e0 48 ce 83 3b 50 3b 81 3e d8 e0 cf 3d 9d 12 06 3e
       0.0040223934 0.25240564 0.101503074 0.13093038
0001f0 b3 05 e6 3c 7e b5 8b 3e 44 b8 e9 3c 58 f5 9f 3d
       0.02807889 0.27286905 0.028530248 0.078104675

fc2.bias f4 [2]
000000 a7 86 c9 bc a3 86 c9 3c
       -0.02460034 0.024600333
