train_result/twibot20/no_cl_no_cd/classifier.pth (torch, 68017 bytes, 4 tensors)

fc1.weight f4 [64, 256]
0.014766813 -0.057736322 -0.008436608 0.13309737 0.05749381 -0.062953174 0.0939839 -0.13268547
0.082344525 0.09939262 7.853932e-05 0.032001533 -0.007757818 -0.011621461 -0.083892815 0.039134387
-0.043529417 0.078269355 0.06176208 -0.10665895 0.06562964 -0.13071562 -0.04049874 0.1013287
-0.040210996 -0.09877223 -0.13046093 0.009917199 -0.11351737 0.02591511 0.07398009 0.04366744
0.06985273 0.02174876 -0.11715475 0.12057168 0.07800258 -0.11092255 0.06614988 0.0044745207
-0.09567392 -0.0029073479 -0.024951952 -0.053876743 -0.09948621 -0.003610186 -0.13763593 -0.084941566
0.1264823 0.15445949 0.00034420352 0.05157184 -0.011151125 -0.07295244 0.02451263 0.07924471
-0.121439405 0.06448136 0.11478921 0.100438915 0.15460195 -0.033439066 -0.027723873 0.15569669
0.05876485 0.101035595 -0.03326545 -0.031239351 -0.0104628885 -0.006824239 -0.07268807 -0.15897849
0.06738287 0.12621547 -0.11094957 -0.009189192 0.14785437 -0.07041503 -0.025150647 -0.061770868
-0.03243025 0.017069511 -0.10002117 -0.05476873 -0.03479899 -0.13212559 -0.1221988 -0.120730676
-0.0010812541 -0.037263427 -0.1180995 -0.035149604 -0.12915197 0.072442435 0.13827872 -0.08850138
0.061256338 0.058227025 0.15478718 0.117730156 0.11585564 -0.14206992 -0.065648556 0.1012508
-0.013876523 0.028582634 -0.07744313 0.1461359 0.07691287 0.033570748 -0.110757984 -0.022526195
-0.06602407 0.0031490996 0.09665229 -0.1301039 0.05216392 -0.10475241 0.09814968 0.015915701
0.067373805 -0.03709937 -0.075166054 0.05861795 0.14857724 -0.1262798 0.013144483 0.08177107
0.008160333 -0.03839147 -0.13011889 0.12021576 -0.07728255 -0.10926048 0.031041361 0.06932261
-0.055985097 0.05606602 -0.083666846 0.022917472 -0.13212524 0.052073684 0.124198794 0.015175527
-0.05736451 0.017494855 -0.16734928 -0.10737421 0.106717944 0.08743912 -0.007601462 -0.021568729
0.003511387 0.128404 -0.09273308 -0.07117722 -0.051026717 0.12407317 -0.090839446 -0.048280127
-0.08735531 -0.07079712 0.1287316 -0.087473795 -0.11791557 0.1522647 -0.12582886 -0.056337457
-0.016997354 0.1436153 0.10381095 0.047558285 -0.15673345 0.00200401 -0.025321683 0.123526484
0.075699754 0.06641648 -0.13219354 -0.06943339 0.032641366 -0.19221382 0.10255941 -0.13572906
0.07111138 0.14310417 0.13392925 0.109270364 0.003767688 0.10640152 0.09457089 0.07407173
0.10367341 0.10342577 -0.040950917 0.04910233 0.16047274 0.16502133 0.057247605 -0.09317109
0.10896541 0.0043474347 0.03514408 -0.12630424 -0.03321524 -0.047916997 -0.09890962 0.12461355
0.13889265 0.082914926 -0.06268349 -0.05426499 -0.00077165285 0.18612729 -0.101491034 0.09579871
-0.10614897 0.054841265 -0.027588723 0.1773322 0.038795978 0.0062937466 -0.063092835 -0.024960391
-0.11029268 -0.0457216 0.124681175 -0.05746632 0.09222047 0.012194089 -0.100848116 -0.07919005
-0.12583284 -0.03473729 -0.12307417 -0.10852479 0.11226914 -0.07580644 0.0014802989 0.048995476
0.051225204 -0.12912337 -0.09043 0.058764108 0.032903835 -0.004461769 -0.03248855 0.07805645
-0.013741135 0.036407154 0.15512748 0.10727191 -0.110451154 0.023599442 0.10821503 -0.04787798
00000000: 81f0 713c ec7c 6cbd b339 0abc ad4a 083e
00000010: a17e 6b3d 98ed 80bd a27a c03d b3de 07be
00000020: 3fa4 a83d 5c8e cb3d 7ab5 a438 0a14 033d
00000030: 4b35 febb f167 3ebc ffcf abbd 614b 203d
00000040: e74b 32bd af4b a03d 3cfa 7c3d 0270 dabd
00000050: d568 863d 51da 05be 02e2 25bd 6c85 cf3d
00000060: 49b4 24bd 1849 cabd 8d97 05be bf7b 223c
00000070: cb7b e8bd ed4b d43c e082 973d a1dc 323d
00000080: f30e 8f3d 752a b23c d4ee efbd 49ee f63d
00000090: d1bf 9f3d 5d2b e3bd 9779 873d 009f 923b
000000a0: b0f0 c3bd 3489 3ebb 0968 ccbc dcad 5cbd
000000b0: 6dbf cbbd df98 6cbb 6ff0 0cbe d8f5 adbd
000000c0: 9384 013e a12a 1e3e 3776 b439 fe3c 533d
000000d0: 35b3 36bc 1768 95bd b6ce c83c 0d4b a23d
000000e0: 39b5 f8bd ce0e 843d 9b16 eb3d ebb2 cd3d
000000f0: f94f 1e3e 67f7 08bd 2d1d e3bc f46e 1f3e
00000100: 69b3 703d c0eb ce3d 5a41 08bd abe9 ffbc
00000110: 896c 2bbc de9d dfbb 7cdd 94bd 42cb 22be
00000120: 0800 8a3d a13e 013e 8739 e3bd 448e 16bc
00000130: 2367 173e c135 90bd bb08 cebc 7303 7dbd
00000140: 95d5 04bd 5cd5 8b3c e6d7 ccbd 2d55 60bd
00000150: 6389 0ebd ee4b 07be 5d43 fabd a541 f7bd
00000160: deb8 8dba 89a1 18bd 27de f1bd 08f9 0fbd
00000170: 6a40 04be b35c 943d f098 0d3e 3640 b5bd
00000180: ede7 7a3d 767f 6e3d 8880 1e3e 821c f13d
00000190: b945 ed3d c77a 11be c072 86bd 945c cf3d
000001a0: 5b5a 63bc 2126 ea3c 819a 9ebd a6a4 153e
000001b0: 7f84 9d3d 7b81 093d 15d5 e2bd db88 b8bc
000001c0: a137 87bd 2061 4e3b a3f1 c53d f539 05be
000001d0: d6a9 553d 6e88 d6bd b302 c93d a561 823c
000001e0: 47fb 893d 82f5 17bd a9f0 99bd 6019 703d
000001f0: a224 183e 7e4f 01be f55b 573c 9777 a73d
00000200: ebb2 053c 6040 1dbd e33d 05be ae33 f63d
00000210: 5046 9ebd f5c3 dfbd 744a fe3c 03f9 8d3d
00000220: a150 65bd 7ca5 653d 8659 abbd 6cbd bb3c
00000230: d74b 07be 374b 553d f05b fe3d c6a2 783c
00000240: 0cf7 6abd 5f51 8f3c 9c5d 2bbe 03e7 dbbd
00000250: f08e da3d 4813 b33d af15 f9bb e7b0 b0bc
00000260: 4c1f 663b 577c 033e d7ea bdbd 5dc5 91bd
00000270: 6401 51bd 131a fe3d 080a babd 62c1 45bd
00000280: 57e7 b2bd 15fe 90bd 37d2 033e 7625 b3bd
00000290: b87d f1bd 47eb 1b3e 48d9 00be 1bc2 66bd
000002a0: 093e 8bbc e40f 133e d69a d43d 7acc 423d
000002b0: bc7e 20be b555 033b 6b6f cfbc 74fb fc3d
000002c0: 7908 9b3d 5d05 883d be5d 07be 1833 8ebd
000002d0: f4b2 053d b3d3 44be ab0a d23d 8ffc 0abe
000002e0: d8a2 913d e689 123e c024 093e 24c9 df3d
000002f0: 51eb 763b 0ae9 d93d 62ae c13d ebb2 973d
00000300: ba52 d43d e4d0 d33d 26bc 27bd 861f 493d
00000310: f752 243e 5afb 283e 777c 6a3d 7cd0 bebd
00000320: 4229 df3d ed74 8e3b 3df3 0f3d e655 01be
00000330: b40c 08bd 9d44 44bd 2091 cabd 6435 ff3d
00000340: e039 0e3e 4dcf a93d 3460 80bd f744 5ebd
00000350: bf48 4aba 2798 3e3e 88da cfbd 1d32 c43d
00000360: a264 d9bd 3ca1 603d bf01 e2bc 9296 353e
00000370: 88e8 1e3d c63b ce3b d136 81bd bc79 ccbc
00000380: 21e1 e1bd 9346 3bbd d858 ff3d ce61 6bbd
00000390: 16de bc3d b7c9 473c 7589 cebd 652e a2bd
000003a0: 53da 00be b048 0ebd 4f0e fcbd 3f42 debd
000003b0: 5ded e53d 6840 9bbd 9706 c23a 7baf 483d
000003c0: 85d1 513d eb38 04be 5d33 b9bd a2b2 703d
000003d0: 2cc6 063d 0834 92bb b712 05bd 0fdc 9f3d
000003e0: 7f22 61bc ab1f 153d bdd9 1e3e 60b1 db3d
000003f0: 3734 e2bd 9e53 c13c d79f dd3d b31b 44bd

fc1.bias f4 [64]
0.0048132646 -0.004246968 -0.0051077288 0.01897256 0.0026552735 0.001005071 -0.009961281 -0.008039406
-0.0051571666 -0.004350142 0.010863806 -0.012114593 0.0041889763 -0.0027598958 -0.01462651 -0.024654888
-0.00022864943 0.011259412 0.008505619 0.007952747 -0.0001776852 -0.0005975806 0.0008872136 -0.00062188576
-0.015033639 -0.011067909 -0.022211608 0.0012832963 -0.0076381285 0.004431882 0.0100961365 0.018896503
-0.0055482243 -0.014635211 -0.0071408283 -0.007375583 -0.0065221936 0.011889667 0.0043011513 0.0077411416
-0.0012882763 -0.0024033405 0.022970306 0.02202271 -0.021038335 -0.01212096 -0.0035759383 -0.014933572
0.008522888 0.0034839336 -0.018987684 0.00612059 0.0012569184 0.00507764 0.013466464 -0.0125445565
0.027569266 0.0005779985 0.0065959967 -0.009435732 0.010813036 -0.00097297656 0.017837694 0.0082425
00000000: 97b8 9d3b 262a 8bbb bc5e a7bb 586c 9b3c
00000010: 1904 2e3b 96bc 833a a434 23bc b6b7 03bc
00000020: 73fd a8bb a38b 8ebb 1bfe 313c 497c 46bc
00000030: ae43 893b 5edf 34bb 08a4 6fbc 0cf9 c9bc
00000040: 9dc1 6fb9 6679 383c 275b 0b3c 3d4c 023c
00000050: 0251 3ab9 f5a6 1cba e693 683a 0c06 23ba
00000060: a74f 76bc 2d56 35bc 1ef5 b5bc 4734 a83a
00000070: 4449 fabb 5239 913b 446a 253c d7cc 9a3c
00000080: e1cd b5bb 86c8 6fbc 9cfd e9bb e0ae f1bb
00000090: 20b8 d5bb e1cc 423c acf0 8c3b 67a9 fd3b
000000a0: 61db a8ba 5d81 1dbb 392c bc3c f868 b43c
000000b0: 9658 acbc fe96 46bc 4a5a 6abb f1ab 74bc
000000c0: 95a3 0b3c b552 643b 0f8c 9bbc 3b8f c83b
000000d0: 2fbf a43a 5562 a63b 72a2 5c3c af87 4dbc
000000e0: f1d8 e13c d384 173a 3b23 d83b 5498 1abc
000000f0: 2929 313c 5a0f 7fba 5b20 923c 8d0b 073c

fc2.weight f4 [2, 64]
0.0283175 0.2375876 0.054067448 0.23997234 0.15364662 -0.1590362 0.16485244 0.1612893
0.04142736 -0.09724243 -0.23630838 0.25143126 0.14540789 0.044863805 0.25952262 -0.13472287
0.19054724 -0.14358895 0.1783792 0.100125305 0.08617651 -0.020636654 -0.053094067 -0.3007692
-0.28651896 0.15900218 -0.03951043 0.050719585 0.24703634 0.31360212 -0.13264164 0.05829826
-0.18044296 -0.24331091 0.17586993 0.07600494 0.23983513 0.24840687 -0.1225987 -0.29295364
-0.27417704 -0.11364545 0.16844472 -0.035718888 0.26574227 0.07453789 0.034080576 -0.01888318
-0.220473 -0.2556962 0.22039524 -0.15231818 0.32617614 -0.16881481 -0.06926546 0.28806943
-0.2606622 -0.047458377 -0.036620732 -0.17587961 0.15031853 0.27557954 -0.05028623 -0.11720216
-0.008922089 -0.16395392 -0.07529171 0.27168345 -0.2827868 0.22989766 -0.20382679 0.09450739
-0.17133522 -0.007937252 -0.0049785776 0.067169055 0.0452545 -0.05440643 0.09522603 -0.18403642
-0.1360017 -0.18807939 -0.10287457 0.24503124 0.044046234 0.2866002 0.024257602 -0.0800255
0.045255117 -0.20420967 -0.112607576 -0.08085416 -0.26183754 -0.04529539 -0.20638989 0.096526995
0.26349038 -0.28268546 -0.18950933 0.057355117 -0.059965022 0.13076803 0.22667418 0.19166474
0.23678558 -0.2852937 0.26521683 0.057240523 -0.24906053 -0.11340746 0.25564155 -0.17878215
0.23337018 -0.3085547 0.18366264 0.272932 0.22368565 0.24427184 0.116267085 -0.019817034
0.006480529 0.23270527 0.100335665 0.1336146 0.024168637 0.249096 0.026416684 0.08474691
00000000: 1afa e73c 2a4a 733e d475 5d3d 4fbb 753e
00000010: 8a55 1d3e 63da 22be 14cf 283e 0629 253e
00000020: bcaf 293d 0a27 c7bd d3fa 71be 99bb 803e
00000030: cee5 143e 1cc3 373d 26e0 843e cbf4 09be
00000040: d11e 433e fb08 13be 09a9 363e 7f0e cd3d
00000050: 4f7d b03d 330e a9bc 2a79 59bd 6cfe 99be
00000060: 9db2 92be 78d1 223e b0d5 21bd 57bf 4f3d
00000070: 18f7 7c3e 7590 a03e 36d3 07be 28ca 6e3d
00000080: 0ac6 38be 7f26 79be 3f17 343e 7aa8 9b3d
00000090: 5797 753e 5f5e 7e3e 0715 fbbd 05fe 95be
000000a0: ef60 8cbe f2be e8bd c67c 2c3e f84d 12bd
000000b0: 5f0f 883e 52a7 983d 1398 0b3d e6b0 9abc
000000c0: adc3 61be 9dea 82be 4aaf 613e 4cf9 1bbe
000000d0: 8f00 a73e cadd 2cbe 0ddb 8dbd d67d 933e
000000e0: 8475 85be b763 42bd 9fff 15bd c919 34be
000000f0: 1aed 193e c318 8d3e eff8 4dbd b007 f0bd
00000100: f42d 12bc 89e3 27be 8a32 9abd 181a 8b3e
00000110: 6ec9 90be 4b6a 6b3e f8b7 50be 178d c13d
00000120: 8072 2fbe 3f0b 02bc 5623 a3bb ee8f 893d
00000130: c85c 393d 47d9 5ebd dd05 c33d 0b74 3cbe
00000140: 0844 0bbe e297 40be e7af d2bd 78e9 7a3e
00000150: d369 343d 43bd 923e e1b7 c63c 69e4 a3bd
00000160: 6e5d 393d 571c 51be cd9e e6bd de96 a5bd
00000170: 920f 86be a987 39bd df57 53be f2af c53d
00000180: 36e8 863e 26bc 90be bc0e 42be 33ed 6a3d
00000190: e29d 75bd 0ee8 053e 471d 683e c343 443e
000001a0: eb77 723e 0412 92be 80ca 873e 0a75 6a3d
000001b0: b909 7fbe 2c42 e8bd 73e3 823e ab12 37be
000001c0: 98f8 6e3e e2fa 9dbe 0f12 3c3e bebd 8b3e
000001d0: da0d 653e 6622 7a3e 701d ee3d 5557 a2bc
000001e0: 9e5a d43b 4a4a 6e3e c97c cd3d 44d2 083e
000001f0: 4efd c53c 0613 7f3e cd67 d83c ca8f ad3d

fc2.bias f4 [2]
-0.019367635 0.019367637
00000000: e0a8 9ebc e1a8 9e3c
