train_result/twibot20/no_cd_tradition_cl/classifier.pth (torch, 68017 bytes, 4 tensors)

fc1.weight f4 [64, 256]
00000000: add0 953c a3b0 bdbd 506e a1bc f90c 2f3e
00000010: f63c b43d ff49 21bd 6a59 033e 62b4 fdbd
00000020: 5a7b a43d 7a05 ea3d 3e2d 25bc 2ad6 a53c
00000030: 4044 6abb 6bac 02bd 8b74 c0bd 19ad 5c3d
00000040: b119 89bd b2fb fd3d 4fa9 863c 561f b1bd
00000050: ac94 8d3d 0f60 e4bd 328b 3dbd d77d a43d
00000060: 28a2 17bd e264 a2bd 1cc6 c0bd fe58 7e3d
00000070: e498 e2bd d256 363d 386b 723d cf35 7f3d
00000080: 5d12 213d 4720 a53d 7503 eebd ce1d fb3d
00000090: c0ca 903d 59ab ffbd 0d68 4d3d 7c85 9f3c
000000a0: 5d31 8abd e8a2 273c ac24 b63a 8dc9 1fbd
000000b0: 7f4c acbd 796c 253c 8ec1 0cbe 4871 97bd
000000c0: 36ee 0a3e 6e07 203e 2a28 2e3d 85f6 aa3d
000000d0: 9886 cabc d95c 97bd c203 7a3d 47ce 963d
000000e0: 011f d7bd f59a d63d cab1 023e 19b0 013e
000000f0: b273 083e 67ea 49bc 816c cc3c 3232 4a3e
00000100: 3097 943d b7cb b23d d926 0ebd 7c43 d8bc
00000110: eadd f9bc 9fda c6bc fdb1 94bd c213 19be
00000120: c914 9d3d 09e6 fd3d f864 c1bd a326 f43b
00000130: f34f 223e 03c5 fbbc 0c23 f8bc 84bb 8bbd
00000140: e7a7 77bd 2c87 c83c cd74 b2bd 2769 6ebc
00000150: 8b84 42bd 8eb3 08be aa02 0ebe 7ad0 e4bd
00000160: 935c 58bc 0e13 03bd 5807 0dbe b64c 5abb
00000170: ef4e efbd a6e5 b13d 1bb1 223e 390e a7bd
00000180: a642 5c3d 1252 5b3d 6c90 2f3e 8cde 013e
00000190: 9a3d eb3d ae12 0abe 94c3 ddbd fed5 b63d
000001a0: 45d9 56bc ffb3 d43c 9331 90bd 0809 133e
000001b0: 99b4 ac3d 18aa 193d 07a6 c1bd c51f 8ebc
000001c0: fd9b 97bd adbd c63a c8aa bb3d 59aa 03be
000001d0: a45b 323d af02 d7bd 7a78 ed3d ba42 22bd
000001e0: 4482 6c3d 365d 7abd 0a96 d5bd 3604 9f3d
000001f0: 724b 213e 23b4 fcbd f4d2 483d 5f80 a63d
00000200: d134 b5bc fa1a eeba 5b39 f8bd cf32 a73d
00000210: 10e6 86bd ac5d dcbd 81a2 3a3c cf79 9b3d
00000220: fa29 a6bd 1d24 bd3d e919 d5bd c777 0e3d
00000230: b8b1 18be 4b5d 963d 7dd0 123e ddc5 0abc
00000240: eb60 fcbc 1a57 333b a088 22be 4b26 5fbd
00000250: 7b0a c93d 651a 9e3d efe2 9f3c 0bc8 ccbc
00000260: 97b4 77bb 6d21 993d f9c4 9bbd ae2e 9cbd
00000270: bfe8 4fbd 6306 f73d f609 96bd 82f5 a2bd
00000280: 5640 ecbd 35fc babd 00c3 cb3d f2fb e9bc
00000290: 13d1 32be 48a1 293e 744a debd a8d0 9abd
000002a0: c3b1 af3d b084 3f3e 7840 b53d 5728 613d
000002b0: e352 31be 8cac 58bd bb4a ffbb e526 bf3d
000002c0: 2923 213e 3bf5 d23d e906 66be d460 1abd
000002d0: e57d 753d f642 71be ace2 f73d 477d 36be
000002e0: 33c2 013e 9ff2 f13d 3551 343e 41cf b43d
000002f0: 621b 8abd 730d d03d 1019 483e de31 393e
00000300: 5bf9 ff3d 8665 e23d 24cc 24bc 233f 453d
00000310: d925 323e e1ad 2b3e 4d4f 173d 4d96 babd
00000320: 2c0a ee3d 2638 18bc 72fe c63d 1173 07be
00000330: 529f 5b3a 4d9e 5abd 7bb8 02bd 631c cb3d
00000340: 5ba3 0f3e 20ba cb3d af94 90bd bd8a 21bd
00000350: d123 233c 45d5 303e c3c6 d9bd a7a5 f03d
00000360: f500 d8bd 4969 b63d 20c3 ed3a 8689 713e
00000370: 8a4f 5d3d c99f 9c3d f42a 47bd df72 d1bc
00000380: c19a 10be 8845 84bd 4352 a73d 5f2e 97bd
00000390: 092c d83d f502 843c c323 8bbd d24c 2ebd
000003a0: 2aba 01be b261 a5bd aca6 03be b8cd c1bd
000003b0: cc1b d63d 4c03 d4bd d260 803b 2059 4c3d
000003c0: 4817 1b3d e138 3ebe 49e8 45bd 31db b03d
000003d0: 5703 79bb 80f1 53bd 5959 f6bc 1ab0 cf3d
000003e0: 5ad1 1ebd 2cc8 673d 5d50 473e 5cfe 223e
000003f0: 90de 12be f9ae 2f3d ff1e 063e facb 96bd
0.01828798 -0.092622064 -0.019705921 0.17094792 0.0880069 -0.03937721 0.12827078 -0.12387921
0.0803134 0.11426826 -0.010081587 0.020243723 -0.0035746247 -0.03190271 -0.09397229 0.053876016
-0.06694353 0.12401523 0.016438155 -0.08648555 0.069131225 -0.11151134 -0.046275325 0.080318145
-0.03701988 -0.07929398 -0.09412786 0.06209659 -0.11064318 0.044516392 0.059184283 0.062307175
0.039324153 0.08062797 -0.11621753 0.12261544 0.070699215 -0.12483854 0.05014806 0.01947283
-0.067476965 0.010231711 0.0013896427 -0.039010573 -0.08413028 0.010096663 -0.1374571 -0.073946536
0.13567433 0.15627834 0.042518772 0.08347801 -0.024722382 -0.07390756 0.06103874 0.07363563
-0.105039604 0.104787745 0.12763134 0.12664832 0.13325384 -0.012323952 0.024954082 0.1974571
0.07255399 0.08730262 -0.034705017 -0.026399367 -0.030501325 -0.024274169 -0.07260511 -0.14948943
0.0766998 0.12397391 -0.094430864 0.007450895 0.1585081 -0.030733591 -0.03029015 -0.06822875
-0.06046286 0.024478517 -0.08713684 -0.014551437 -0.047489684 -0.13349745 -0.13868204 -0.11172576
-0.013205665 -0.032000594 -0.13772333 -0.0033309883 -0.11684977 0.0868638 0.15887873 -0.0815701
0.0537745 0.053545065 0.17144936 0.12682551 0.11486359 -0.13483688 -0.10828319 0.089275345
-0.0131133245 0.025964735 -0.070407055 0.14358914 0.08432884 0.03751573 -0.09455495 -0.017349133
-0.07402799 0.0015162729 0.09163433 -0.12857951 0.043544427 -0.10498559 0.11595245 -0.039614417
0.05774142 -0.06112405 -0.10429008 0.07764475 0.15751436 -0.12339046 0.049029306 0.081299536
-0.022119911 -0.0018165999 -0.12120315 0.08163988 -0.0658685 -0.10760054 0.011391283 0.075915925
-0.08113475 0.09235404 -0.104053326 0.034782197 -0.14911544 0.07342013 0.14337344 -0.008470026
-0.030807933 0.002736515 -0.15872431 -0.05447988 0.09816452 0.07719878 0.01951739 -0.024997732
-0.003779685 0.074770786 -0.07605929 -0.07626091 -0.050759073 0.12061765 -0.07326119 -0.07956983
-0.115357086 -0.09130136 0.09949303 -0.02856252 -0.17462568 0.1656543 -0.108540446 -0.07559329
0.08578827 0.1870296 0.08850187 0.05497011 -0.17316775 -0.05289893 -0.007790891 0.093335904
0.15736069 0.1030068 -0.22463574 -0.03769 0.059934516 -0.235607 0.12103781 -0.17821227
0.12671737 0.118138544 0.17609103 0.08828593 -0.06743504 0.10158815 0.1954081 0.18085429
0.12498733 0.1105452 -0.010058437 0.048155915 0.1739725 0.16765548 0.03694086 -0.09110699
0.11623034 -0.009290731 0.097165 -0.13227488 0.00083779276 -0.053373624 -0.031914216 0.09917524
0.14027159 0.0994761 -0.07059609 -0.03943895 0.00995727 0.17268856 -0.10633614 0.11750346
-0.105470575 0.089068 0.0018139817 0.23587617 0.054030932 0.07647664 -0.048624948 -0.02556747
-0.14121534 -0.064585745 0.08169987 -0.073818915 0.10555274 0.016114691 -0.067939304 -0.04255373
-0.12668672 -0.080752745 -0.12856549 -0.09463066 0.104545206 -0.10352191 0.003917792 0.049889684
0.037864 -0.18576385 -0.048317228 0.086355574 -0.0037996375 -0.051743984 -0.030071901 0.101410106
-0.038773872 0.056587383 0.1946425 0.15917343 -0.14342713 0.042891476 0.13097762 -0.07363124

fc1.bias f4 [64]
00000000: a59b 7fbc 4ccc d4bc 321a f6bc 1bdf b63d
00000010: b594 aabc aeb9 c03c 6818 95bc 5248 92bc
00000020: fbb7 f6bc 6198 f63c 7db7 723d 8a1b 05bc
00000030: d951 58bd a61c d3bc 8b9e 51bd 46ae 88bb
00000040: 49b0 b5bc 5900 0ebd 3b1c 72bb 6144 323d
00000050: 93c8 50ba 9700 dc3c 8797 c63c e84f 7d3c
00000060: 5284 e0bb fc15 2ebd ed24 cbbc 9399 cfbc
00000070: b9f6 42bd 1276 0abd 0483 24bd 8baf 8a3c
00000080: 734b 023b 7b56 48bd 6ae9 2c3b cc09 51bd
00000090: c86d b7bb 80de ebbc 6c80 9c3c fdec b53c
000000a0: 91dc 9a3c a1af f7bc bd92 933d 8452 3a3d
000000b0: afb1 4bbd 47ac 0dbd 1766 b03c 4930 6bbd
000000c0: aa61 fd3c 84aa 17bd 7eaa 2fbd 053b 523d
000000d0: bc06 f2bc 301c 143d dfb7 d33c 0898 29bd
000000e0: fac4 8f3d 7a51 2a3c eca7 883d df10 333c
000000f0: 9495 e0bc 04c8 00bc 68f2 a23d 298e cd3c
-0.015601073 -0.025976323 -0.030041788 0.08929273 -0.020822862 0.023526039 -0.018200114 -0.01785675
-0.030117026 0.030101957 0.05925702 -0.008124242 -0.05281243 -0.025770497 -0.05117659 -0.0041711656
-0.022178786 -0.0346683 -0.0036943096 0.043522242 -0.0007964458 0.02685575 0.024242176 0.015460946
-0.0068517113 -0.042501435 -0.024797881 -0.025341785 -0.047598574 -0.033804007 -0.04016401 0.016929409
0.0019881397 -0.0489106 0.0026384243 -0.051034734 -0.0055978037 -0.02879262 0.019104205 0.022207731
0.018904002 -0.030235114 0.072057225 0.04548885 -0.04973 -0.034588125 0.021533055 -0.057419095
0.030930359 -0.03702785 -0.042887203 0.051325817 -0.029544227 0.036159694 0.025844513 -0.041404754
0.07019992 0.010395402 0.066726536 0.010929315 -0.027415074 -0.007860187 0.079563916 0.025092201

fc2.weight f4 [2, 64]
00000000: 1e08 8e3d 7dd9 8c3e d54e 893d 59ed 523e
00000010: 56a1 2b3e cc14 2fbe 203f 3e3e 8028 393e
00000020: 76be 773d 0f4a 01be 873c 85be c352 923e
00000030: e0e5 363e 29c1 2dbb 1ffe 823e ebaa 3cbe
00000040: a94c 4f3e ec02 04be acd3 483e a70e db3d
00000050: 38ca 003e b3ed f5bc c063 a2bd 445b a5be
00000060: e430 89be 1033 0e3e 573d c6bc 7479 723d
00000070: cbec 6b3e e339 a83e 22e2 17be 898d f43c
00000080: d410 27be fef1 53be eaff 323e 3abd e13d
00000090: b4c9 683e a30a 873e 8169 e5bd c778 96be
000000a0: c5f9 86be 63c5 a7bd ddc6 143e 388d 68bd
000000b0: 8f5c 7f3e e436 b73d 8796 1a3d 1653 f1bc
000000c0: d079 5bbe a97a 84be a389 523e 2444 12be
000000d0: c87a af3e c3cb 43be 36a4 63bd 9840 973e
000000e0: 6c96 a2be 232a 17bd 393e 87bd 1f5c 3fbe
000000f0: d7f9 443e c001 923e d14b d6bd 70db 0fbe
00000100: a69e 4cbd 594c 4ebe 71c6 b4bd 1481 9c3e
00000110: 5aef 97be b4a4 773e 0428 66be 3c8e 993d
00000120: 37f6 42be 76ae ac3c a329 9b3c 5166 063d
00000130: 8f72 453c c3d0 e1bb 0a8e ca3d e9bd 09be
00000140: df71 17be f19d 4fbe 3a05 f7bd 6be9 733e
00000150: 42db 913b 388b 973e 37aa 4e3d 5ae2 6cbd
00000160: 7d9e da3c f17d 3cbe 2bfd 02be fbf3 b6bd
00000170: e014 7bbe 84d3 76bd f248 43be a3f1 ff3d
00000180: 3f1b 7c3e 6c56 a3be 64f7 40be 2c87 bd3c
00000190: 2167 42bd 3a62 ec3d 8447 5d3e 2d39 453e
000001a0: a3a9 673e 6e50 a2be 7fa5 933e 265a a03d
000001b0: 9447 6ebe e168 03be 9603 813e 703e 2cbe
000001c0: bdae 683e d76a 9cbe b637 4b3e 31e3 863e
000001d0: 6b19 543e 3588 883e 7b14 d23d 1282 debc
000001e0: 4dc9 813d d87b 633e a6dd 043e 9a14 143e
000001f0: b868 92bc 1441 753e 5369 a53d f03e dd3d
0.06935142 0.2750968 0.06704489 0.20598353 0.16760764 -0.17097777 0.18578768 0.18081856
0.060484372 -0.12625907 -0.2602274 0.28578767 0.17861128 -0.0026512838 0.25584504 -0.18424575
0.20244087 -0.1289174 0.19611996 0.10696154 0.1257714 -0.03002057 -0.07929182 -0.32296193
-0.26795113 0.13886666 -0.024199171 0.059197858 0.23039548 0.32856664 -0.14832357 0.029852645
-0.16315013 -0.20697781 0.17480436 0.1102242 0.22733194 0.26375303 -0.11201764 -0.2938902
-0.26362434 -0.081919454 0.14528985 -0.0567753 0.24937652 0.089460164 0.03774121 -0.029458564
-0.21433187 -0.25874832 0.20560317 -0.14283806 0.34273362 -0.19120698 -0.055576526 0.2954147
-0.31755388 -0.03690542 -0.06603665 -0.18687485 0.19235931 0.2851696 -0.104636796 -0.14048553
-0.049955986 -0.20146312 -0.08826912 0.3056723 -0.29674798 0.24183923 -0.22476202 0.07497832
-0.19039236 0.021079283 0.018940752 0.03281242 0.012051239 -0.0068913414 0.09890373 -0.13451351
-0.14789532 -0.20275094 -0.12061544 0.2381951 0.0044511864 0.29598403 0.0504553 -0.057833053
0.026686901 -0.18407418 -0.12791888 -0.08933254 -0.24519682 -0.06026031 -0.19070795 0.124972604
0.24619769 -0.31901872 -0.18844372 0.023135744 -0.047461633 0.11542173 0.21609312 0.19260092
0.22623305 -0.31701988 0.288372 0.078296944 -0.23269492 -0.12832977 0.25198048 -0.16820693
0.22722907 -0.30550262 0.19845471 0.26345208 0.20712821 0.26666418 0.102578126 -0.027161632
0.06337223 0.22215211 0.12975177 0.14460984 -0.0178722 0.23950607 0.080767296 0.1080302

fc2.bias f4 [2]
00000000: 6161 9bbd 6161 9b3d
-0.07586933 0.07586933
