train_result/twibot20/no_cd_pro_cl/classifier.pth (torch, 68017 bytes, 4 tensors)

fc1.weight f4 [64, 256]
00000000: e748 823d cac7 cebc 1bf2 06bd eada 343e
00000010: 993a 543d d6e3 05bd fe51 d33d b9ea 0abe
00000020: fcd7 9f3d d872 fb3d 1741 083c 4802 ad3d
00000030: 73c6 06bd 275f ed3b 6c0a 7bbd 8aff 883d
00000040: a2f2 cabd de67 de3d f586 4a3d cd8d ddbd
00000050: 3199 ba3d 0b25 fabd e256 07bd b2e0 ba3d
00000060: 380b d1bc c848 7abd c513 c0bd b976 953c
00000070: 2135 b9bd 4a22 dd3c e2e7 863d 9479 663d
00000080: 14cb df3c e435 573d 1491 01be 30e2 153e
00000090: d8bf 393d 31f6 cebd b863 913d 8d44 b6bb
000000a0: cdcc babd eaa7 b8bc 1201 c23a 981f 59bd
000000b0: cd8e aabd b48e 0cbb 3bab 26be 9e51 89bd
000000c0: c898 173e c70b 353e 45fa 9fbc 11f2 9e3d
000000d0: e94c 6e3c f02f cabd 1290 263b 1062 ea3d
000000e0: 9ca5 e5bd 7b51 ab3d 8acd 1e3e 4c49 243e
000000f0: 373c 273e fd52 11bc 7d68 313c be62 343e
00000100: 93ef b23d ddba b73d b8b3 333c 8c56 78bc
00000110: 6c20 8ebc 805f 413c bf51 4dbd 9a47 25be
00000120: 55d7 f43d af2e da3d e425 0cbe 4ddf 57bb
00000130: 6948 403e 6e75 02bd c931 3abd d81d 9abd
00000140: bbe9 76bc 9b0e 503c 9661 dabd 8bf0 70bd
00000150: 0332 f6bc 1992 03be 54f7 0fbe 9cf9 dabd
00000160: 4300 703c 9746 95bd 60ce 01be 01f2 a4bc
00000170: 5234 0fbe 1153 163d 0a9f dc3d bc6e 9abd
00000180: 8450 273d 6402 c03d 8c4f 363e 65a6 d13d
00000190: 643f ad3d 7cd5 2abe 3845 adbd 8448 ed3d
000001a0: fa6a a7bc bdd8 723d 1a53 b1bd 123d 483e
000001b0: 7a27 803d 3493 5a3d d17e eebd f121 ddbc
000001c0: 23fa 93bd 6374 063d f578 fc3d 31f8 13be
000001d0: 7273 e13c ffd6 e3bd 4fe2 9f3d c638 57bb
000001e0: efc2 6b3d 0edb 043a 40be 3abd 099d d73d
000001f0: c5b7 443e 0dfc debd f385 0d3d 4962 c83d
00000200: 6e7b a4bb f66f 94bc 6b7d c8bd 0bb2 163e
00000210: a57a 42bd b7ee a4bd ff2c 123d 42ae b33d
00000220: 4038 f2bd e975 263e 0623 7abd d86e 9a3d
00000230: bc73 18be 7ae8 3b3d a05e 3c3e 4f15 a63c
00000240: cba9 cfbc 1c98 b0bc b77a 49be 002b fb3b
00000250: 7775 be3d e95a 013e 6cdc 363b 3187 b0bc
00000260: e039 4b3d 3bbb f33d 9f0d 61bd 7371 37bd
00000270: 26da d9bd 3162 0f3e aa38 54bd 5037 b8bc
00000280: 9f9d 1dbe 2b08 0fbe 664e be3d bdc7 a43b
00000290: 8a1c 3cbe a210 6a3e 1442 b5bd 8cea bebd
000002a0: f46a 7e3c b91b 513e f451 8a3d b667 2c3d
000002b0: 3488 78be b422 c5bd 3677 3c3d 72d1 fa3c
000002c0: 3da2 073e 2bb9 fd3d 2bac 46be b69f 80bb
000002d0: 1de2 3f3d 09a4 83be 2644 4e3e 232c 3cbe
000002e0: 9413 ef3d 5630 1e3e e2c1 423e c991 823d
000002f0: f3c8 41bd 4091 033e db7f 2f3e 4abc 133e
00000300: 36e6 103e c1e7 e73d dfad f4bc a81b 053d
00000310: 3b3d d23d 1a1f 233e 409c 973d f6be abbd
00000320: 66b0 ba3d 84e0 08bc 9eb3 3e3c f551 3ebe
00000330: cb08 5dbd 813d 76bd e504 e7bd 543f 8c3d
00000340: 855a cf3d c07d a03d 1bd0 9ebd 1026 4bbd
00000350: 359d ecbc c37b 303e b621 bfbd 847f bc3d
00000360: 17d1 f1bd 1d21 6e3d 5118 1fbd 678e 403e
00000370: 644a ce3c fb7b 2f3d ca99 afbd b015 dcbc
00000380: 4dd1 0bbe f310 94bd d2e1 cb3d 13fa 9ebd
00000390: a46d f33d de9a 513b 2778 19be 6f57 87bd
000003a0: fdf8 0ebe 4fec cfbc 7e54 f0bd 921e 9cbd
000003b0: f263 ce3d 9705 b7bd ec4d 643d 3633 8f3d
000003c0: 7878 273d afd2 31be c911 f2bd 066a 1b3d
000003d0: dd76 30bc cd05 8abd c3ab 603d ffc8 a93d
000003e0: 5760 633c b0af fabc 94b0 4a3e bcb5 183e
000003f0: 8e39 03be b5d1 123d 6a9f 5c3d 6891 fbbc
0.06361561 -0.025241751 -0.032945734 0.17661634 0.051813696 -0.032687984 0.10318373 -0.13566102
0.078048676 0.12277764 0.0083163 0.08447701 -0.0329041 0.007244009 -0.061289236 0.06689365
-0.0990956 0.10859655 0.04944511 -0.10818062 0.0911125 -0.12214097 -0.033041842 0.091248885
-0.025518045 -0.061104566 -0.09378771 0.018245088 -0.09043337 0.02699389 0.06587197 0.05626829
0.027318515 0.05254163 -0.12652999 0.14637065 0.045348972 -0.10105551 0.07099098 -0.005562371
-0.09121094 -0.022541005 0.0014801344 -0.053008646 -0.08328018 -0.0021447362 -0.16276257 -0.0670502
0.14804375 0.17680274 -0.019528517 0.07761014 0.014544704 -0.098724246 0.0025415462 0.11444485
-0.11213228 0.083651505 0.15508094 0.16043586 0.16331564 -0.008869884 0.010828135 0.17615792
0.087371014 0.08971188 0.010968141 -0.015157353 -0.017349444 0.011802554 -0.050126787 -0.16140595
0.11955134 0.106534354 -0.13686329 -0.0032939494 0.18777622 -0.03185027 -0.045457635 -0.075252235
-0.015070374 0.012698795 -0.10663144 -0.05882315 -0.030053144 -0.128487 -0.14059192 -0.106921405
0.0146485 -0.072888546 -0.12676382 -0.020134928 -0.13984802 0.036700312 0.10772522 -0.07540652
0.04084827 0.09375456 0.17803782 0.10236815 0.084593564 -0.16683 -0.08460468 0.11586097
-0.020436753 0.05928873 -0.086584285 0.19554546 0.062575296 0.05336304 -0.11645282 -0.026993724
-0.07225444 0.03282584 0.12327758 -0.14450146 0.027520869 -0.111249916 0.07806837 -0.0032840236
0.05755895 0.0005068042 -0.045591593 0.10527999 0.19210728 -0.108879186 0.034551572 0.097843714
-0.005019597 -0.018119793 -0.097895466 0.14716356 -0.047480244 -0.08053344 0.035687443 0.087734714
-0.11827135 0.16255917 -0.061068557 0.07540673 -0.14887899 0.045876004 0.18395472 0.020273833
-0.025349518 -0.021556906 -0.19675718 0.007665038 0.092997484 0.12632336 0.0027902378 -0.02154884
0.04961574 0.11900946 -0.05494463 -0.044785928 -0.10637312 0.14002301 -0.05181185 -0.022487313
-0.15392159 -0.1396796 0.09292297 0.0050286935 -0.18370262 0.22857907 -0.08850494 -0.0932208
0.015528429 0.20420732 0.067539126 0.042091094 -0.24270707 -0.0962576 0.046012126 0.03061745
0.13245483 0.123888336 -0.19401614 -0.003925289 0.046846498 -0.25711086 0.20143184 -0.18376212
0.11673656 0.15448126 0.19019273 0.063754626 -0.04731078 0.12848377 0.17138617 0.14427295
0.14150319 0.113235004 -0.029868064 0.03249708 0.10265585 0.15929833 0.07402849 -0.08386032
0.091156766 -0.00835431 0.011639504 -0.18585952 -0.053963464 -0.06011725 -0.112802304 0.068480164
0.10124687 0.07836485 -0.07754537 -0.049596846 -0.028883556 0.17234711 -0.09332602 0.09204009
-0.11807459 0.058137048 -0.03884155 0.18804322 0.025181957 0.042842846 -0.08574255 -0.02686581
-0.1365406 -0.07229795 0.09955181 -0.077625416 0.11886147 0.0031983177 -0.1498724 -0.066084735
-0.13962169 -0.025381235 -0.117348656 -0.07623018 0.10077657 -0.08936613 0.055738375 0.069921896
0.040886372 -0.17365526 -0.118197985 0.03794291 -0.010770527 -0.06739388 0.054851305 0.0829029
0.01387795 -0.030601352 0.19793922 0.14913076 -0.12814924 0.035844523 0.053862967 -0.030708984

fc1.bias f4 [64]
00000000: 7232 dfbb 44ad c6bc 5309 8dbc 17e7 313d
00000010: fde2 643c 76a6 dbbb b93d 593b 6b55 d4bb
00000020: ee95 cbbc 9266 483c 68af 5b3c 943a bcbc
00000030: 3fe7 bbbc d3d6 ecbc abb3 e5bc bd03 a7bc
00000040: b5e7 4ebc 6c2c 0ebd f1b6 073c c50c f53c
00000050: 969c 14bd 1f8b 773b 1991 c43c a1fc 9ebb
00000060: be7e 59bc 737c 8abc 5575 953b 138e 39bc
00000070: 1eaa a7bc 40ed d2bc 2ef1 8b3a 1a5f 323d
00000080: 1b41 1fbd 10ca 15bd 933d e1bb 157f 40bd
00000090: 3cac 24bc 130b 42bb 56a8 3b3c 8d62 233c
000000a0: 05ec 433b 7a45 02bd babe df3c 4156 193d
000000b0: 3c71 0dbd fe76 00bd 523c 8ebb 5a1c cfbc
000000c0: d66a cb3c 3cbe f5bc 4923 b4bc 796a 26bc
000000d0: bd0f 073d f436 bfbb 5190 043d 0027 24bc
000000e0: 95b0 3e3d ae8c f83b 7041 693c 5d13 c0bb
000000f0: af17 2fbc 182a d33b 23cd 983c 5f58 0ebb
-0.0068114335 -0.024252541 -0.01721636 0.043433275 0.013970134 -0.0067031933 0.0033148362 -0.006479909
-0.024851765 0.012231486 0.013408519 -0.022977151 -0.022937415 -0.02891103 -0.028039774 -0.020387525
-0.012628485 -0.034710333 0.008283363 0.029913316 -0.036282144 0.0037772132 0.02399497 -0.004851893
-0.013274847 -0.016905045 0.004561106 -0.011325377 -0.02046686 -0.025747895 0.0010676736 0.043547727
-0.03888045 -0.036569655 -0.0068737953 -0.046996195 -0.0100508295 -0.0029608652 0.011453709 0.009972227
0.0029895317 -0.03180454 0.027312625 0.037435774 -0.034531817 -0.03136348 -0.004340687 -0.025282074
0.024831217 -0.029997937 -0.021989482 -0.010157221 0.032973994 -0.0058354083 0.032364193 -0.010019064
0.04655512 0.0075851297 0.014236793 -0.0058616833 -0.010686799 0.006444227 0.018652504 -0.0021720154

fc2.weight f4 [2, 64]
00000000: 908d b63d d153 643e 701a bd3d 6514 4f3e
00000010: bcfc 3e3e 085d 1dbe 9b51 3a3e 01a8 493e
00000020: f09d 063d d79d e8bd a0f9 7ebe 3002 823e
00000030: f73d 2f3e e87c 6a3d 1702 6f3e 0c33 05be
00000040: 9f45 4c3e 6afe 11be afc5 593e 010c ed3d
00000050: 13e1 883d 70fb 1cbc 6e66 83bd 8fd0 9bbe
00000060: 7e6e 83be b48d 273e b4e2 deb9 3c47 673d
00000070: 76e7 883e cddf a03e 5476 dfbd e885 b9bb
00000080: c849 01be 1bf3 60be fd66 233e 6be5 ce3d
00000090: f506 613e 0d5b 873e b6f9 ebbd 0151 90be
000000a0: 6d1d 77be cea4 cdbd 454a 083e 4fab 61bd
000000b0: 347b a73e 8d20 423d f680 203d b92b 11bd
000000c0: a0f8 59be c725 8dbe 41c0 5b3e 710a debd
000000d0: 53e0 b03e 8620 29be 2b0f d4bd 2e56 a13e
000000e0: 91f9 8cbe f25e c7bc e3dc 44bd d56f 28be
000000f0: de74 633e 9983 8d3e 2e3d 54bd d15b e0bd
00000100: bdd4 8ebd 30ed 18be 1192 e8bd 946d 9e3e
00000110: fe9c a1be f3ec 653e 863a 62be 7c1e 713d
00000120: 13ae 26be e5aa 093c 0db7 fc3b 6c75 843d
00000130: 7af8 9f3c 8bc9 88bd 6882 f83d cb35 41be
00000140: d36a 14be 73a2 41be a074 0cbe c5ea 6a3e
00000150: 22d1 813d 3814 8d3e 76af 103d 2a9c 9cbd
00000160: e4ee 7c3c 9ad8 55be 5f55 1bbe da5a b1bd
00000170: 8b7b 90be c502 3cbd f66f 6bbe b156 243e
00000180: 2354 563e e0d5 9cbe 7b5e 31be 3c73 043d
00000190: 185c 23bd ad20 eb3d 9e8f 603e d7e9 383e
000001a0: 82d3 503e a0d8 98be d2e3 993e 48e9 9c3d
000001b0: b5f0 9ebe 25ab b0bd 4c46 803e ca1d 26be
000001c0: 852d 673e babf 93be 1901 423e 7a87 6a3e
000001d0: 434e 513e 1865 763e c328 1a3e b9ed 3fbd
000001e0: 2757 ad3c 409d 563e 73eb e43d 9b50 fa3d
000001f0: 8f20 43bd 553d 7e3e 6af0 e43c e5e3 9d3d
0.0891372 0.22297598 0.09233558 0.20222624 0.18651098 -0.1536752 0.18195193 0.19692995
0.032865465 -0.113582306 -0.24899912 0.25392294 0.17113481 0.057248026 0.23340641 -0.13007754
0.19948433 -0.14257208 0.21266817 0.11574555 0.066835545 -0.009581432 -0.06416021 -0.30432555
-0.25670236 0.16362649 -0.00042512047 0.05646442 0.2673909 0.31420746 -0.10911241 -0.005661715
-0.12625802 -0.21967737 0.15957256 0.10102352 0.2197531 0.26436654 -0.11522238 -0.281868
-0.24132319 -0.100411996 0.13309582 -0.055095013 0.32711184 0.047394324 0.039185487 -0.035442088
-0.21286249 -0.27567884 0.21460058 -0.10841835 0.34546146 -0.16516313 -0.103544556 0.31511062
-0.27534154 -0.024337266 -0.048062216 -0.1644891 0.2221255 0.27639464 -0.051816158 -0.109550126
-0.0697417 -0.1493423 -0.11355985 0.30942976 -0.31565088 0.2245367 -0.22092637 0.058866963
-0.16277342 0.008402561 0.007712251 0.06467709 0.019527663 -0.06679066 0.12134248 -0.18868177
-0.14493875 -0.18909626 -0.13716364 0.2294112 0.06338717 0.27554488 0.035323583 -0.076469734
0.015437815 -0.20883408 -0.15169285 -0.08659907 -0.28219256 -0.04590108 -0.22991928 0.16048695
0.20930533 -0.30631924 -0.17321198 0.03233646 -0.03988275 0.11480842 0.21929786 0.18057953
0.20393184 -0.29852772 0.30056626 0.07661682 -0.3104302 -0.08626393 0.25053632 -0.16222301
0.22575958 -0.28857213 0.18945731 0.22903243 0.2044001 0.24062002 0.15054612 -0.04685757
0.021159722 0.20958424 0.11177721 0.122224055 -0.047638472 0.24828084 0.02794667 0.07709483

fc2.bias f4 [2]
00000000: ae10 22bd ad10 223d
-0.03956669 0.039566685
