train_result/twibot20/static_cd_no_cl/classifier.pth (torch, 68017 bytes, 4 tensors)

fc1.weight f4 [64, 256]
00000000: 9900 f33c a1e3 3bbd adbc c1bc 77b0 193e
00000010: e3aa 453d 52b0 81bd cd3c be3d 1bf9 07be
00000020: a2ef b43d b40f df3d 5a1b 1f3a da86 373d
00000030: 7e22 513b 8df4 aebc 3f5b 93bd 6482 733d
00000040: 9559 46bd 9c3a b63d 0ea9 5d3d afb7 9abd
00000050: 741b b13d 3721 0ebe d3e2 21bd c374 d43d
00000060: 8e40 3cbd ec9c 98bd be77 01be 05a0 8e3c
00000070: 70fa f0bd 7658 f73b 417c da3d 14a3 a03d
00000080: 092b 623d 1b11 e33c 69a6 0fbe 59d7 073e
00000090: 2270 8c3d 2ce1 e1bd a4bd 883d bbfa 853b
000000a0: c27a d7bd 8b2e 6e3c 18b6 be3a c720 60bd
000000b0: 955f c7bd 0adb 32bc 5b86 f9bd 7342 5dbd
000000c0: 3fc3 0a3e 1d20 343e 727a 1abc 1cc4 a73d
000000d0: 95c8 d23b 124a a8bd 974e 2d3d cce6 913d
000000e0: cb95 f3bd 74ae a93d c0fe ec3d 91ba cc3d
000000f0: 49ef 1c3e 8d0c 6dbc c260 b4bc 75cd 2d3e
00000100: 02d2 a53d e026 ca3d 1676 00bd 0983 aa3a
00000110: 348e 4e3a 9a21 eeba f5f2 acbd bcc6 2abe
00000120: 77df a63d 54bd ff3d a15e e5bd d598 acb8
00000130: 29d2 093e ea1a 87bd 7fa7 37bd 538a 40bd
00000140: 77d1 20bd b74e a53c d07c d7bd 25d7 1ebd
00000150: 95d1 20bd 5fce 2cbe 80be f1bd dd61 0ebe
00000160: 6ee7 aebb c1cb 02bd 6388 02be 6f1a cabb
00000170: 7236 13be 5584 993d e4d8 0a3e 1646 97bd
00000180: 95e0 8c3d 9b80 8c3d 387d 353e 0751 113e
00000190: 027d de3d 8036 23be cf07 52bd edc1 ee3d
000001a0: 6b2c e63a ec2f 013d bb1a 91bd 6fff 2f3e
000001b0: 9491 7a3d 6fcd 463d ff51 d7bd 41c6 49bc
000001c0: 686c 9cbd 71f4 b23c 268f d13d fa2a 0fbe
000001d0: 6a9f 493d 3d33 dbbd c19b 8a3d e057 323d
000001e0: dbc5 973d 579f 48bd 6dcb 7bbd fa1e 833d
000001f0: 46c8 153e abbc fcbd 1afb ed3c 08d0 c43d
00000200: c795 9a3c 59d9 efbc f18b e0bd 722b fe3d
00000210: 7297 8ebd a849 bfbd 9ceb 0f3d 376e 9e3d
00000220: 386f 13bd 8310 973d 98ba cbbd 5f43 353d
00000230: c75f 10be 5553 9a3d 0142 003e aa9a c23c
00000240: b6eb 10bd c684 ec3c fe15 38be dc6a ecbd
00000250: 8896 ff3d b170 cb3d f382 cbba 0a85 05bc
00000260: 93e0 5cbb 1dae 153e 0947 93bd 6a98 7ebd
00000270: a538 69bd 8a23 0e3e 57e1 a8bd af3a 17bd
00000280: 6fb3 a2bd 793c afbd 8b5f df3d 8b85 95bd
00000290: b423 0abe 7a10 313e b7be e7bd 6d6a b8bd
000002a0: 3499 543c e47b 323e 0253 0b3e b5af 8d3d
000002b0: cd40 2ebe fcfe 36bb d29e 4b39 4605 f73d
000002c0: 97bd 023e 87b2 933d 0e7e 1ebe 0ccb 88bd
000002d0: 052e 2f3d 9587 32be 2800 023e 4d78 16be
000002e0: 6713 d43d 6ced 2a3e 0173 233e 376f f73d
000002f0: 07da 74bc 86e3 d53d 7edf 063e b0b5 f33d
00000300: 9802 e83d b621 e73d 2d39 8cbb 63e1 4a3d
00000310: 5729 1c3e ba4e 233e 5a29 823d 20a7 bebd
00000320: 22a0 193e 458f a3bb 0bb8 803d 55c2 febd
00000330: 689f 8dbc f1c6 e4bc 58e5 babd f5c9 fc3d
00000340: 9027 0c3e 398d 8d3d 4584 83bd 9346 7bbd
00000350: e27f a4bc c46d 3f3e 1a9e 9abd 1813 bd3d
00000360: d8e7 cfbd 2944 5e3d 739f 7cbc d150 323e
00000370: 710e e03c c4d0 063d a335 60bd 5092 e8bc
00000380: 74f7 03be d3a1 8dbd cbd0 ba3d 3d85 b5bd
00000390: 1768 8d3d 17bd bfbb 8418 dabd 9008 5dbd
000003a0: 169e 23be 487f 88bd b619 08be 876b f3bd
000003b0: 2b2e a53d 3de3 b0bd 212e 153d 915f b13c
000003c0: ab11 1e3d 17ce 04be ded0 a0bd dd70 323d
000003d0: 95a4 183b e0f5 e9bc cce3 f1bc 93f7 d73d
000003e0: 3ccd 9cbb 3072 bf3a 72b2 113e 5b4a 043e
000003f0: 752c 9cbd e2c5 303d 97b0 aa3d 7a73 95bd
0.02966337 -0.04587138 -0.023649538 0.15008722 0.048258673 -0.063324586 0.092889406 -0.1327862
0.08834769 0.10891667 0.00060694444 0.04480634 0.0031911428 -0.021356845 -0.07195138 0.059450522
-0.048425276 0.088978976 0.0541163 -0.07554566 0.086478144 -0.13879858 -0.039522957 0.10373833
-0.04596 -0.074518055 -0.12643334 0.017410288 -0.11766517 0.007548387 0.10668231 0.07843605
0.055216823 0.027718117 -0.14028324 0.13265742 0.06857325 -0.11029276 0.06676796 0.0040887273
-0.10521461 0.014537464 0.0014550118 -0.05471876 -0.09735028 -0.010916481 -0.121838294 -0.05401845
0.13551043 0.17590375 -0.009428607 0.08191702 0.0064326026 -0.08217253 0.042311277 0.07124099
-0.11893805 0.082852274 0.11572027 0.09996522 0.15325655 -0.014468324 -0.022018794 0.16972907
0.080966964 0.09870696 -0.031362616 0.0013009022 0.0007879466 -0.0018167973 -0.08444778 -0.16677374
0.08148091 0.12487283 -0.1119969 -8.230066e-05 0.13459076 -0.0659693 -0.04483747 -0.047006916
-0.03926226 0.020179136 -0.10521853 -0.038779397 -0.039262373 -0.168756 -0.11803913 -0.1390452
-0.005337647 -0.031932596 -0.1274734 -0.006167702 -0.14376238 0.074959435 0.135593 -0.07386415
0.06878773 0.06860467 0.17723548 0.14191066 0.10863687 -0.15938759 -0.051276978 0.11658082
0.0017560845 0.031539842 -0.070851766 0.17187284 0.06117399 0.04853576 -0.105136864 -0.012315334
-0.07637864 0.021845074 0.102323815 -0.13981238 0.049224295 -0.10703132 0.06767989 0.043540835
0.07410785 -0.048980083 -0.0614733 0.06402393 0.1462718 -0.12340673 0.029050399 0.09609991
0.018870248 -0.029278444 -0.10964192 0.1241063 -0.0696248 -0.09340221 0.035136804 0.077358656
-0.03599474 0.07376196 -0.09947699 0.044253703 -0.14099036 0.075354256 0.12525178 0.02375539
-0.03538104 0.028871905 -0.1797714 -0.11543819 0.124798834 0.099336036 -0.0015526697 -0.008149395
-0.0033703193 0.146172 -0.07191283 -0.062157072 -0.056938786 0.13880745 -0.08246105 -0.0369212
-0.079443805 -0.08556456 0.10906895 -0.07300862 -0.13490182 0.17291442 -0.11315673 -0.09004674
0.01297598 0.17430073 0.13605884 0.06918279 -0.17016907 -0.0027922979 0.00019418754 0.12061553
0.12767635 0.07211786 -0.15477774 -0.06679353 0.042768497 -0.17434533 0.12695372 -0.14694329
0.10355263 0.16692132 0.1596184 0.120817594 -0.01494456 0.10443787 0.13171193 0.118998885
0.1132862 0.11285727 -0.004279277 0.04953135 0.15250145 0.15948 0.063555434 -0.0930922
0.15002492 -0.0049914443 0.062851034 -0.1243941 -0.017287925 -0.027926894 -0.09125775 0.12343208
0.13686967 0.06911702 -0.06421713 -0.0613466 -0.02008051 0.18694216 -0.07549687 0.092321575
-0.101516426 0.05426422 -0.015418875 0.17413642 0.027350636 0.03291394 -0.054738652 -0.02839008
-0.12887365 -0.06915631 0.09121855 -0.08863304 0.06904619 -0.0058513987 -0.10649207 -0.053963244
-0.15978274 -0.06664902 -0.13291058 -0.118857436 0.080654465 -0.08637092 0.036420945 0.021652015
0.03859107 -0.12969242 -0.07852338 0.043564666 0.0023291458 -0.028559625 -0.029527567 0.10545268
-0.004785208 0.0014606174 0.14228228 0.1291899 -0.07625667 0.043157466 0.08334463 -0.07297416

fc1.bias f4 [64]
00000000: 7c48 633c ff65 ddbb 6da9 19bc 382d 43bc
00000010: e0a5 773a ebf6 023c b68d fb3b 4bda 03bb
00000020: c811 55bc c23c f93b 6882 b33b 44cb 8cbb
00000030: 95cd 82bb 698a ce3b 7b3a 89bc e156 e2bc
00000040: 7764 36bb e037 eb3b 2fad c5bb d5e3 413c
00000050: 86b8 6839 b570 6f3b acff a33b 861d d83b
00000060: 663b cabb 1c07 35bb 4e13 6abc bf7f a83b
00000070: 61eb 36bc 6b13 013c 6f1f faba 6044 173d
00000080: e7e0 25bb c04d 99bc efed 813a 1cac 52bb
00000090: 110c 283b 0176 cabb 67c0 213b 6df7 7c3c
000000a0: ee7a d0ba 6900 94bc f012 983c 07a9 c53c
000000b0: acab 39bc 3567 b33a cd44 04bc d85d 23bc
000000c0: 7911 803b 011b 2d3c c862 46bc d40d a03a
000000d0: 2a5d bd3c 7796 37bb 8569 493c 8226 27bc
000000e0: adfd f33c 63be eaba ef82 b93b 9dcc 06bc
000000f0: 6185 d93a ef6c 6cbc 548f ec3c f017 3dbb
0.013872262 -0.0067565436 -0.009378773 -0.011912636 0.00094470195 0.00799344 0.0076768054 -0.0020119126
-0.013004728 0.00760612 0.005478192 -0.004296692 -0.0039917924 0.006303121 -0.016751518 -0.027629318
-0.0027830878 0.0071782917 -0.006032608 0.011834105 0.00022193984 0.0036535684 0.0050048437 0.0065953163
-0.0061716316 -0.0027622646 -0.014286829 0.0051421816 -0.011164517 0.007878165 -0.0019082854 0.03693044
-0.0025311054 -0.018713832 0.0009912829 -0.0032146042 0.0025641958 -0.006178618 0.002468133 0.01543985
-0.0015905777 -0.018066602 0.018563718 0.02412845 -0.011332434 0.0013687374 -0.008073044 -0.009971105
0.003908333 0.01056552 -0.012108512 0.0012211152 0.023115713 -0.0028013268 0.012293224 -0.010202052
0.029784048 -0.0017909523 0.0056613605 -0.008227495 0.0016595536 -0.014430269 0.028876938 -0.002885338

fc2.weight f4 [2, 64]
00000000: abbe 7c3d 72d9 763e b857 433d d9c6 843e
00000010: 155a 1a3e 8bdf 2cbe 31ae 313e c754 2e3e
00000020: ab4f 3e3d 9d31 d8bd 7715 6dbe efa5 853e
00000030: f6c8 183e 8094 593d 5b50 873e 27e1 f4bd
00000040: 5a0b 3c3e e99c 0dbe b206 403e c6e5 ee3d
00000050: edc7 d63d 0269 a7bc fda0 48bd 2a63 9bbe
00000060: 095a 90be a7e9 2d3e 5b48 26bd d0bf 5c3d
00000070: 7cd6 813e 97e2 a43e 0b82 04be 437a f43c
00000080: 88f9 35be feee 6dbe 1ed8 383e 0f22 c63d
00000090: 0f25 7d3e 45de 7c3e 23a7 f7bd e54e 93be
000000a0: 3ef9 8bbe a5a2 dcbd 1d9e 333e 6b3e 0fbd
000000b0: 72b1 893e 3710 b83d a28d 2f3d 43ca b4bc
000000c0: d9b2 6bbe 7668 75be d7e8 6f3e 57fc 02be
000000d0: 7381 a93e f22a 2cbe 6659 91bd b50b 973e
000000e0: ea6e 85be 647e 6abd 9599 18bd 27d4 35be
000000f0: 1625 123e 7398 893e 9776 64bd d149 e1bd
00000100: 1a4d 2dbd d072 2bbe 7423 8dbd e330 813e
00000110: bb4b 8fbe 756f 753e 1497 59be b035 af3d
00000120: 719a 34be 0b26 c939 ace7 1fbc b1cc 6b3d
00000130: 60d0 293d 5555 80bd 2f45 b93d 35f8 4bbe
00000140: 8c30 04be f403 46be 176b e5bd e6fd 693e
00000150: caa8 cf3c e1a2 923e 9007 a53c 8151 9ebd
00000160: a598 263d 8634 5cbe 7965 e4bd 2617 acbd
00000170: 8d6a 89be a118 5cbd 0ba9 56be 6ff6 ff3d
00000180: ff81 853e ee57 96be 99cf 46be 03fa 153d
00000190: 4eea 89bd 1e68 073e 5066 663e 92e5 3e3e
000001a0: 8ca8 713e 2319 95be f539 843e 7565 673d
000001b0: f226 81be 87d5 03be 6bc9 7c3e 7ccf 33be
000001c0: c5e7 783e 4531 a6be 82d8 2d3e 897e 7e3e
000001d0: 0f0c 603e 886f 793e f39b f13d 1b34 dbbc
000001e0: 5cb1 d23b 0a51 783e c6c9 ce3d a38c 0a3e
000001f0: 9c1e 023d d409 833e 95b1 023d ead1 9e3d
0.061705273 0.24106386 0.047691077 0.2593296 0.15073426 -0.1688215 0.17351605 0.17024527
0.046462696 -0.10556338 -0.2315272 0.2610316 0.1492041 0.053120136 0.26428494 -0.11957007
0.18363705 -0.13829388 0.18752554 0.116649196 0.104873516 -0.020435814 -0.048981655 -0.30349094
-0.2819369 0.16983663 -0.040596347 0.053893864 0.2535895 0.32204124 -0.12940232 0.029843455
-0.1777097 -0.232357 0.18051192 0.09674465 0.24721168 0.24694164 -0.12092426 -0.2877113
-0.27338594 -0.107732095 0.17540784 -0.034971636 0.26893193 0.08987468 0.04285968 -0.022069102
-0.23017444 -0.2396563 0.23428665 -0.12791573 0.33106574 -0.16813257 -0.070971295 0.2950112
-0.26061183 -0.05724944 -0.037255842 -0.17756711 0.1427196 0.26874122 -0.05577716 -0.110004075
-0.042309858 -0.16743016 -0.06891528 0.2523261 -0.27987465 0.23968299 -0.21249038 0.08555162
-0.1763704 0.00038366052 -0.009759825 0.057568256 0.041458488 -0.06266276 0.09046399 -0.19918902
-0.12909144 -0.19337445 -0.112020664 0.22850761 0.02534904 0.28639892 0.020145208 -0.077303894
0.040672917 -0.21504411 -0.11152167 -0.08402853 -0.26839104 -0.053734425 -0.20962922 0.12498175
0.26075742 -0.2936396 -0.1941513 0.036615383 -0.06734143 0.13223311 0.22499967 0.18642262
0.23599452 -0.2912074 0.25825468 0.05649324 -0.25225025 -0.12874423 0.2468621 -0.17559618
0.24307163 -0.32459465 0.16977122 0.24852957 0.218796 0.24358952 0.11797323 -0.026758244
0.0064298343 0.24249664 0.10097079 0.13530211 0.031767473 0.25593436 0.031907637 0.07754882

fc2.bias f4 [2]
00000000: fb3b c4bc fb3b c43c
-0.023954382 0.023954382
