train_result/twibot20/full_model/classifier.pth (torch, 68017 bytes, 4 tensors)

fc1.weight f4 [64, 256]
000000 e7 39 03 3d a2 3b 5d bd 7a 0d 93 3a 04 d4 3e 3e
       0.03203764 -0.05401195 0.0011219226 0.18635565
000010 0f fb 9f 3d 8b c7 32 bd 2a 27 04 3e 2c 63 11 be
       0.078115575 -0.04364733 0.12905565 -0.14197987
000020 07 85 82 3d 46 ad fc 3d 4c c6 55 bd a3 21 ae 3b
       0.06373029 0.12337737 -0.052191064 0.0053140684
000030 a0 68 cf 3c 3e ff 9c bc a1 b8 8c bd f4 1f ad 3d
       0.025318444 -0.019164678 -0.06871153 0.0845336
000040 be 36 65 ba 61 7f c3 3d 35 86 47 3c ab 63 b1 bd
       -0.0008743814 0.0954578 0.012177994 -0.08661588
000050 35 99 84 3d 73 71 11 be 29 56 97 3c 86 d9 0b 3e
       0.064745344 -0.14203434 0.018473702 0.13657197
000060 94 96 4a bd ad 7c 90 bd f5 c9 6b bd 37 fb bc bc
       -0.04946001 -0.0705503 -0.057565648 -0.023069007
000070 ef 6d 1c be 78 4b a7 3c 9c 03 f7 3d c8 2c 7a 3d
       -0.15276311 0.020421728 0.12061235 0.061077863
000080 f2 16 32 3d d8 1b e4 3c 18 35 da bd 2f f0 c5 3d
       0.043478914 0.027845308 -0.10654658 0.09664952
000090 35 4b 5d 3d db 13 2a be f1 e8 51 3d 1b 22 05 bd
       0.0540268 -0.16609137 0.05124754 -0.03250323
0000a0 37 bc b0 bd 79 9f 36 3d 91 7d 11 3c 9e 97 81 bc
       -0.08629649 0.04458568 0.008880035 -0.015819367
0000b0 07 3e 9d bd 85 46 50 3c 2c ca ef bd 61 f9 78 bc
       -0.076778464 0.012712126 -0.11708483 -0.015196175
0000c0 1c c1 0f 3e 63 57 1b 3e 18 9f 98 b9 36 b3 e5 3d
       0.14038509 0.15170054 -0.00029110233 0.112158224
0000d0 0c b1 80 bc 2c bf 84 bd f5 e9 47 3c 8d 1c a1 3d
       -0.015709423 -0.06481776 0.012201776 0.07866774
0000e0 d5 b5 e1 bd 46 3a 91 3d 46 10 d8 3d c6 73 00 3e
       -0.1102101 0.07091193 0.10549979 0.12544164
0000f0 2f f6 1e 3e cb 7e 1f 3c 0c 14 35 bc b9 fb 27 3e
       0.15523599 0.00973482 -0.011052143 0.16404618
000100 db 8a c7 3d a1 60 eb 3d a1 d6 32 bd ea 77 f9 bc
       0.097432815 0.1149304 -0.043661717 -0.030452687
000110 d9 e2 dd bc 87 b4 23 bc 50 14 cb bd a3 22 3b be
       -0.027085708 -0.009991772 -0.09915984 -0.18274932
000120 c2 a9 ec 3d 96 0c 28 3e a8 ba ca bd b4 3e e2 bb
       0.11555816 0.16411051 -0.09898883 -0.0069044475
000130 fc e9 1e 3e 07 f0 69 bd fe 46 0f bd 5f f0 87 bd
       0.15518945 -0.057113674 -0.034979813 -0.06637644
000140 41 8c 24 bd 91 3e 5b 3c 93 09 06 be 77 9b 75 bd
       -0.04017282 0.013381616 -0.1308959 -0.059962716
000150 3d a8 fe 3c 96 6d 1a be 6b 6d 8c bd e9 38 ea bd
       0.031086082 -0.15080866 -0.06856807 -0.11436636
000160 35 fd 19 bc fd 08 fd bc d5 de 07 be bf 58 62 bb
       -0.009398748 -0.030888075 -0.13268597 -0.003453776
000170 38 67 b7 bd 37 7f 15 3d 45 38 c9 3d 3f eb d2 bc
       -0.08955234 0.036498275 0.09825186 -0.02574694
000180 c9 8a 80 3d df 23 ea 3d ed 73 1f 3e c8 98 1c 3e
       0.06276471 0.11432623 0.15571566 0.15292656
000190 d9 d8 c9 3d e6 2a f9 bd 7e ec 43 bd 62 b9 07 3e
       0.098558135 -0.12166385 -0.04783296 0.13254312
0001a0 14 bb 81 bc 82 6c a0 3d 6c 48 a9 bd 19 1e 4b 3e
       -0.015836276 0.07833196 -0.082657665 0.198357
0001b0 8b 38 01 3c 20 9a 5c 3d a7 b1 c7 bd cb b1 a6 bb
       0.007887016 0.053857923 -0.09750681 -0.0050871125
0001c0 f9 31 32 bd 40 a1 90 3c ac 92 fc 3d 54 51 2c be
       -0.04350469 0.017655015 0.12332663 -0.16827899
0001d0 77 f0 13 bb 72 5a 28 be 4c e5 91 3d 40 1f 80 3c
       -0.0022573748 -0.16440752 0.07123813 0.015639901
0001e0 8c f3 c3 3d 22 b3 0d bd 67 3c 42 bd ba 09 81 3d
       0.09567937 -0.034594662 -0.047420885 0.06300683
0001f0 17 25 2c 3e 33 e7 99 bd 8f 85 4b 3c f3 a4 b9 3d
       0.16811024 -0.07514801 0.01242198 0.09064665
000200 ad 33 bd 3c b4 ca 7b bd 10 af d3 bd a4 ca a8 3d
       0.02309593 -0.06147261 -0.10336125 0.08241776
000210 5a dd 92 bd 3d fb 9e bd 77 12 1e ba 28 83 cd 3d
       -0.07171126 -0.07762764 -0.0006029973 0.10034782
000220 e1 f2 5a bd 28 d4 82 3d 48 2f f4 bd f4 29 30 3d
       -0.053454284 0.06388122 -0.11923081 0.04300876
000230 9a fe 02 be 2d 9b b4 3d 73 35 d5 3d 79 bb ff 3c
       -0.12792435 0.0881866 0.10410585 0.031217324
000240 1c 45 9f bd 17 29 a8 3d ae 5b 15 be e4 7c d3 bd
       -0.077768534 0.08210962 -0.14585754 -0.10326555
000250 bb 4a 2a 3e 0d 0d d2 3d 75 3a da 3c ab 0b 2a bc
       0.1663007 0.102563955 0.026639203 -0.010378758
000260 7d 6b 01 3d 4e 94 12 3e 54 76 c4 bd 17 56 b2 bd
       0.03159665 0.14314386 -0.09592882 -0.087078266
000270 08 d2 9c bc 6a fe fd 3d c7 4d b6 bd 18 5f a4 bc
       -0.01914312 0.12402041 -0.089015536 -0.020064875
000280 32 c6 ea bd 4a a1 e0 bd ef ac 0c 3e 39 99 5e bc
       -0.11463584 -0.109682634 0.13737844 -0.013586336
000290 03 15 08 be 64 54 2f 3e 74 13 cb bd f4 85 e0 bd
       -0.13289265 0.17122036 -0.0991582 -0.109630495
0002a0 61 80 0e 3d 59 5c 43 3e 46 cb 0d 3e 8d e6 51 3d
       0.0347904 0.19078197 0.13847074 0.05124526
0002b0 ea 9e 64 be 9d 9b 0f bd d6 02 96 bb 65 99 a9 3d
       -0.22326246 -0.035060514 -0.004577975 0.08281211
0002c0 55 95 dd 3d 18 49 25 3d c0 d1 3d be 0a 18 a1 bd
       0.108194984 0.04035291 -0.18537045 -0.07865913
0002d0 4e 46 31 3c 97 5f 5e be 13 80 13 3e 5d 72 34 be
       0.010819985 -0.21716152 0.14404325 -0.17621751
0002e0 c4 b6 ab 3d 72 0b 42 3e 01 d8 48 3e bc 67 ff 3d
       0.08384469 0.18949679 0.19613649 0.12470958
0002f0 ab 7e f4 bc 9e 8f ea 3d d7 a9 19 3e dd 3d 32 3e
       -0.029845556 0.11453174 0.15006195 0.17406411
000300 55 be 02 3e 7d cc 0d 3e d1 5c 86 bb 0c 31 77 3d
       0.12767918 0.13847537 -0.00410042 0.06034951
000310 5d c2 08 3e ec 96 34 3e 1a e4 a3 3d 99 ee ae bd
       0.13355394 0.17635697 0.08002491 -0.08541603
000320 58 f9 c5 3d a5 06 39 bd ad 90 1b 3d 6e 25 f6 bd
       0.09666699 -0.045172352 0.03797977 -0.12018858
000330 1f 56 ed bb bd 2d 74 bd 2e 93 bb bd ad 41 86 3d
       -0.0072429325 -0.059613932 -0.09158932 0.065554954
000340 51 21 c1 3d 8d 42 a9 3d 40 8a b0 bd a5 e5 31 bd
       0.09430183 0.08264647 -0.08620119 -0.043431897
000350 f5 5c dc bc b8 85 4a 3e 97 e7 a8 bd 80 1e 33 3d
       -0.026899794 0.19777572 -0.08247297 0.04373026
000360 9d b2 c3 bd 7f 93 3f 3d ae 42 88 bd 45 12 08 3e
       -0.09555552 0.046771523 -0.06653343 0.1328822
000370 75 18 e9 3b 88 bf 24 3c af c3 7e bd a3 11 cd bc
       0.007113511 0.01005543 -0.062198337 -0.025032824
000380 1a 1d 0d be e8 53 bd bd 5a 8b e7 3d 1a 5b c5 bd
       -0.13780633 -0.092445195 0.11305876 -0.09636517
000390 18 09 68 3d 6a 46 4b 3b 20 08 bb bd c0 96 8a bd
       0.056649297 0.0031017312 -0.09132409 -0.067670345
0003a0 02 c8 2e be 4a e1 a5 bc 8c af b0 bd f7 69 0c be
       -0.17068484 -0.020249028 -0.08627233 -0.13712297
0003b0 61 84 ee 3d 95 de f5 bd 63 77 ee bb 81 ed 12 3d
       0.11646343 -0.12005345 -0.0072774156 0.035871033
0003c0 53 a1 8f 3d df a7 38 be 1a 50 c8 bd 8e 46 98 3d
       0.07013192 -0.18032788 -0.09780903 0.07435332
0003d0 5d 5e fe 3c 59 79 be bc 3b c1 bd bc 60 f6 c8 3d
       0.031050855 -0.023251222 -0.023163429 0.09812617
0003e0 0b 41 e1 bc 8f 35 6e 3c 4f fa 94 3d cf b2 02 3e
       -0.027496835 0.014539137 0.07274305 0.12763523
0003f0 15 65 fe bd d8 dd ee 3c 47 a1 c2 3d ad 1d 81 bd
       -0.124216236 0.029158518 0.095034175 -0.06304488

fc1.bias f4 [64]
000000 03 e2 b0 bc 16 6d 9a bb ec 06 fb ba 7b 9f 0e bd
       -0.021592146 -0.004712711 -0.0019151843 -0.03482006
000010 da 2c 5b bc fb d3 a6 3c de 66 b7 3a d1 e4 e5 bc
       -0.013377393 0.020364752 0.0013992449 -0.02806321
000020 8c e0 25 bb 9a e5 0b bb 37 68 e9 3c 11 c7 01 bb
       -0.0025310842 -0.002134657 0.028492076 -0.001980249
000030 ac 9e 85 bb 82 fe c0 bc 3f 12 be 3b 32 34 cd bc
       -0.004077753 -0.023558859 0.005800515 -0.025049303
000040 79 32 b9 bb 33 1b aa 3b fa a2 5e 3c a3 8a 89 3c
       -0.0056517688 0.0051912307 0.013588661 0.01678974
000050 30 aa e0 bc 5d a4 37 bc f9 f6 a6 3c f8 54 dd 3a
       -0.027424902 -0.011208621 0.020381438 0.0016886285
000060 19 29 6d bc d9 dd b1 bc b6 18 ba bc bc d3 76 3c
       -0.0144751305 -0.02171223 -0.022716861 0.01506513
000070 32 18 11 bc 75 11 2d bc 85 e0 a1 3b 48 90 49 3d
       -0.008855866 -0.010563244 0.004940095 0.049209863
000080 4a 02 c9 3b 9d 00 29 bd 38 1c de 3b c9 8a 81 bd
       0.006134306 -0.04126035 0.0067782663 -0.06325299
000090 3e 1f aa ba f0 e1 1d bc 54 8d bd 3c a7 1e 56 3c
       -0.0012979282 -0.009636387 0.02313868 0.0130688315
0000a0 4b 8f 8c bb 09 11 5a bc 84 49 5d 3d 94 89 d9 3c
       -0.004289543 -0.013309726 0.054025188 0.02655486
0000b0 61 74 37 bd d3 0a 0d bd aa 20 bd bc 75 48 c5 bc
       -0.044788722 -0.03443415 -0.023086865 -0.024082402
0000c0 ca 19 ff 3b 93 79 d5 ba 56 ba da bc e5 34 9c 3b
       0.0077850567 -0.0016286842 -0.02670018 0.0047670477
0000d0 a5 3e f8 3b 9d 5d a7 3c 44 fc ce 3c b0 a8 fc 3b
       0.007575827 0.02043038 0.025266774 0.007710539
0000e0 c5 f6 f9 3c 8e 50 d5 3b 7e a6 ca 3c 35 49 b2 bc
       0.030513177 0.006509847 0.024737593 -0.021763423
0000f0 11 25 68 bc 2d 27 a0 bc 21 48 94 3c a6 8a 63 3c
       -0.014168994 -0.01954993 0.0181008 0.013888037

fc2.weight f4 [2, 64]
000000 a4 9c 87 3d 79 1d 74 3e d3 51 95 3d 01 70 82 3e
       0.06621674 0.23839368 0.07290997 0.25476077
000010 44 0b 19 3e 5c 46 2f be b1 70 39 3e 3b 98 1e 3e
       0.14945704 -0.17116684 0.18109395 0.15487759
000020 8b 92 b8 3c 93 6b bc bd af 06 6d be e2 e3 8c 3e
       0.022530815 -0.09200206 -0.23147081 0.2751761
000030 1e 82 34 3e 0e 05 06 3d 2a aa 80 3e dd 2e 01 be
       0.17627761 0.032719664 0.25129825 -0.12615533
000040 9c b8 38 3e 42 de 43 be c0 02 58 3e 6a f0 e0 3d
       0.18039173 -0.19127753 0.21094799 0.10983355
000050 84 79 8c 3d 3a c4 0e 3c 8d e4 63 bd a9 30 98 be
       0.06859115 0.008713776 -0.055637885 -0.29724625
000060 35 34 85 be 0a ca 15 3e 91 73 2c bd 18 39 7f 3d
       -0.26016393 0.14627853 -0.0421024 0.06231031
000070 3e 52 81 3e 36 02 94 3e 0f 85 0f be af f5 82 3b
       0.25258058 0.28907937 -0.14015602 0.003996573
000080 df ba 2f be 97 8b 79 be fc 50 2a 3e f9 7b 97 3d
       -0.1716113 -0.24369656 0.16632456 0.07396693
000090 96 73 93 3e 30 e6 82 3e 02 70 fb bd 7e 38 84 be
       0.28799123 0.25566244 -0.12277223 -0.2582435
0000a0 83 53 84 be ee f5 e0 bd 29 01 0e 3e db f0 46 bd
       -0.25844964 -0.10984407 0.1386763 -0.04856954
0000b0 4c 0b 8b 3e db 8a 72 3d 05 af 0f 3d c5 c1 1c bc
       0.27157056 0.059214454 0.03507902 -0.009567683
0000c0 e9 df 63 be ba 54 78 be 83 bf 68 3e dc 7d 10 be
       -0.22253384 -0.2425107 0.22729306 -0.14110512
0000d0 0e f6 9f 3e 3a 08 36 be 57 5a ac bd 46 86 98 3e
       0.31242412 -0.17776576 -0.084156685 0.29789943
0000e0 f0 ae 88 be 76 36 e3 bc 67 8f f1 bc 2d 94 2a be
       -0.26695967 -0.02773593 -0.029487325 -0.16658087
0000f0 11 73 2a 3e 3d 06 96 3e 68 4c 6a bd 6d 40 e2 bd
       0.16645457 0.29301634 -0.057201773 -0.110474445
000100 c2 c7 3f bd da b6 28 be 75 c9 c0 bd b9 87 83 3e
       -0.046821363 -0.16476002 -0.09413425 0.25689486
000110 4d a4 8e be 48 d6 77 3e 95 59 61 be be ae ce 3d
       -0.27859727 0.24202836 -0.22006829 0.10091923
000120 e7 18 1c be 45 e7 57 bc f8 d3 20 bc 98 dd 31 3d
       -0.15243874 -0.013177698 -0.009816162 0.04342422
000130 6d ae 6b 3c 38 1b 2d bd c1 dd d3 3d f5 39 45 be
       0.014384848 -0.042262286 0.103450306 -0.1926039
000140 d5 dd 00 be 9c c2 0f be ad b1 0a be 81 f8 70 3e
       -0.12584622 -0.14039081 -0.1354434 0.23532297
000150 53 71 7c 3d 3a b6 83 3e 7a 8e db 3c d1 1b ab bd
       0.061631512 0.25724965 0.026801337 -0.08354915
000160 ed d3 9a 3c ea 14 44 be d2 4f e1 bd c0 53 bd bd
       0.018899882 -0.19148603 -0.11001553 -0.0924449
000170 57 e6 88 be 26 2c aa bc 0b a6 4b be db 72 1a 3e
       -0.26738235 -0.020773005 -0.19887559 0.15082876
000180 a7 62 82 3e a0 89 90 be 78 48 38 be 0d 46 73 3d
       0.2546589 -0.2823 -0.17996395 0.059392978
000190 8d 6e dd bd 0d f4 fc 3d cc 4a 68 3e c8 b8 20 3e
       -0.108121015 0.123512365 0.22684783 0.15695488
0001a0 0b 5d 62 3e 5f 04 94 be 52 08 97 3e f7 8b 8f 3d
       0.22105806 -0.28909585 0.29498535 0.07009118
0001b0 cf 80 82 be 5b e0 c8 bd 8b 60 82 3e a7 9c 40 be
       -0.25488898 -0.098084174 0.2546428 -0.18809758
0001c0 d4 14 71 3e 23 bb a4 be d5 01 35 3e 09 00 86 3e
       0.23543102 -0.32174024 0.1767648 0.26171902
0001d0 de 22 73 3e 73 a6 81 3e 55 4e 06 3e 7c dd f2 bc
       0.2374377 0.25322303 0.13115819 -0.029646628
0001e0 14 5a 51 3c 30 18 5a 3e e1 e0 be 3d 57 99 fe 3d
       0.012777824 0.2129829 0.09320236 0.12431591
0001f0 fe 9a 03 3c 0c 38 6d 3e 6d 87 08 3d 86 c8 9f 3d
       0.0080325585 0.23165911 0.033332277 0.07801919

fc2.bias f4 [2]
000000 e8 e6 18 bd df e6 18 3d
       -0.037329584 0.03732955
