train_result/twibot20/no_cd_unsupervised_cl/classifier.pth (torch, 68017 bytes, 4 tensors)

fc1.weight f4 [64, 256]
00000000: 58c8 d9bb 7309 10bd 2a8e 3dbd e1bb 043e
00000010: a21f cb3d e46e a5bc fca0 1b3e b9fe 83bd
00000020: 8473 cd3d 3df7 d03d 4349 673d 9e27 aa3b
00000030: 54cf 52bd 8d4b c13c 79e3 073c cf36 8a3d
00000040: eb28 cb3c f70d 803d a79f f43c 6cd8 68bd
00000050: 54ab 703d d2f9 fcbd 56e3 42bc c589 913d
00000060: b466 d2bd 542d cebd 07e4 a7bd e05a 0e3d
00000070: 3b94 28bd a06f b33d 4209 313d 931f 973c
00000080: d61a 9f3d 9917 78bc d856 c5bd 9685 b73d
00000090: f8bd ef3c dd82 bcbd d151 a13d 3eed 82bc
000000a0: df0e 82bd 9e30 013c 8c5b 8fbc 5f79 3ebd
000000b0: 9e65 c0bd d1fa 7b3b 7ddd 32be c317 33bd
000000c0: 7a7a 123e fa16 253e 24a3 3d3b 7654 a73d
000000d0: a981 373d 529e 82bd ec64 5c3d 5956 dc3d
000000e0: 7716 e5bd 9fd8 813d 282f 8d3d 2a12 e03d
000000f0: 34ef 0e3e c93d b1bd 98ff 01bd 3ea9 4d3e
00000100: c9fd 543d ee1f dc3d 2d39 5a3c 5433 2c3b
00000110: a1c7 ebbb 6aa3 82bd 5a51 863c fe7d 2dbe
00000120: b20e 9e3d e295 173e fb36 b4bc e6cf aa3c
00000130: f4d6 4b3e 2f51 2dbd 9d7f 633b 27de b5bd
00000140: 86ab 7cbc 80f1 bb3c 3863 f4bd 503e 16bc
00000150: cf88 6dbd 1f63 11be 74dd 28be dbe0 0fbe
00000160: 4717 253c 10b4 93bd b458 a9bd cd23 d6bc
00000170: c605 e2bd 51be 223d 3154 be3d 2ac3 1bbd
00000180: 6ae0 a23c f765 9d3d a60d 263e 3d79 103e
00000190: 50c1 0f3e d0da d2bd d541 f6bd b919 813d
000001a0: 4979 e0bc 9af8 073d eab7 84bd ce27 2e3e
000001b0: 5f4e 593d f8d5 433c 403f 2abe 296b 1ebd
000001c0: 61e6 b5bd ff42 b13d 3681 013e 0edc 29be
000001d0: 7f36 4ebb 0755 f5bd 9290 7e3d df66 c03c
000001e0: 6783 e83d 2682 afbc 1edf 73bc 6d96 c33d
000001f0: 4887 123e 9a4e 05be f387 883c a972 9a3d
00000200: b1ee 023c 7795 16bd 4871 97bd 5679 a73d
00000210: a2d7 54bd e653 bebd 9a42 233d 9f0b e73d
00000220: 9d8b dabc 67af 9d3d 5a55 f3bd ea7d 0e3d
00000230: 754b 37be de23 673d df0f b73d 8a6c 8c3c
00000240: 523d 77bc 4121 3bba 4bcc 25be 22e8 7abd
00000250: c0e2 e93d cf55 ec3d 6af3 e8bc 27c7 17bc
00000260: 6ee0 92bc 0238 aa3d 5a08 b8bd 9075 44bd
00000270: 3ac1 38bd 5bf3 d23d ca01 50bd 7f49 72bd
00000280: 2e03 00be 5bb9 2abe 944d ab3d be13 263c
00000290: a673 36be e819 7d3e 462c a3bd bc06 25be
000002a0: ac25 b83d c89f 6a3e fcde c03d 4f71 e63c
000002b0: 6d7a 5abe 0ef0 acbd 67be 933d b9a1 153e
000002c0: 8cdf 4d3e 7b65 943d d1c6 8cbe 9073 afbb
000002d0: 622a 053d 22e4 a1be 68e1 4c3e af94 2cbe
000002e0: d77d cd3d 4a49 2b3e 70cd 823e b4d4 3a3d
000002f0: 13b7 6ebd 3581 cb3d 82fb 503e cafd 5b3e
00000300: 49a8 d43d 02d0 793d 518a 3abc c870 d43d
00000310: 448f 033e eee8 233e 6eb3 453d d978 30bd
00000320: b33b d63d 4f67 6a3b 042e 6f3d 7af0 11be
00000330: 2c85 91bd 593e 81bd 6f61 cebd 6924 e23d
00000340: cf28 d23d 69c6 7e3d 1102 e3bc 7275 3cbd
00000350: a172 e33c 2b7b 403e 3484 a5bd 8a8e be3d
00000360: 73b3 a4bd 1693 453d 6b5c 0ebd 8a9f 173e
00000370: 3e9b f63c d340 c5bb 121a 9fbd 9e13 edbc
00000380: d6ee 2dbe 6199 09bd b117 8d3d cbd5 b1bd
00000390: 5ba4 053e 9379 af3c 4183 18be 94bc aabc
000003a0: e1ee 0ebe ee5c 603b 7db5 bebd b222 ebbd
000003b0: 0384 263e ff0f edbd 8113 323d af04 c03d
000003c0: 5c26 923d 552f 4fbe 4a9d 9fbd 24b1 8c3d
000003d0: 3ffc 143d 5044 32bd 6d22 01bd a3da b43c
000003e0: dccc 843c 6a3e 7c3c 2337 103e 670a dd3d
000003f0: 2c63 0fbe f454 883d f0ce ae3d b681 aebd
-0.0066461973 -0.03516526 -0.046278156 0.12962295 0.09918143 -0.020194478 0.1519813 -0.06445069
0.100317985 0.10203407 0.056466352 0.005192711 -0.051467255 0.023595596 0.00829398 0.06748735
0.024799785 0.062526636 0.029861284 -0.05684702 0.05875714 -0.12352337 -0.011895021 0.071063556
-0.10273495 -0.100672394 -0.0819779 0.034754634 -0.04115699 0.08761525 0.04322172 0.018447673
0.077687904 -0.015142345 -0.09635705 0.08961026 0.029265389 -0.09204648 0.07876933 -0.015982267
-0.06350493 0.007885126 -0.017499708 -0.046502467 -0.09394382 0.0038449059 -0.17467304 -0.043723833
0.14304534 0.16122046 0.002893635 0.081704065 0.044801388 -0.063778535 0.053807184 0.10758657
-0.111859255 0.06340145 0.0689376 0.109409645 0.13958436 -0.08654363 -0.031737894 0.20084092
0.05199984 0.107482776 0.013319296 0.002627571 -0.0071954285 -0.06378825 0.016396213 -0.16942593
0.07717647 0.1480327 -0.021998873 0.020851087 0.19906217 -0.04231375 0.0034713515 -0.08880263
-0.015421754 0.022942305 -0.11932987 -0.00917013 -0.0579918 -0.14197968 -0.16490728 -0.1405062
0.0100763505 -0.072120786 -0.08268872 -0.026140118 -0.110362574 0.03973228 0.09293402 -0.03802792
0.0198824 0.07685464 0.16216144 0.14108749 0.14038587 -0.102956414 -0.12024275 0.06303734
-0.027401583 0.03319607 -0.06480391 0.17007372 0.053053256 0.01195287 -0.1662569 -0.038676415
-0.08881832 0.086553566 0.12646946 -0.1658785 -0.0031465588 -0.11979108 0.06214959 0.023486553
0.11353188 -0.021424364 -0.014884738 0.09550176 0.14309418 -0.13018265 0.016666388 0.07541401
0.007991479 -0.036763635 -0.073946536 0.0817744 -0.051963456 -0.09293346 0.039858438 0.112815134
-0.0266779 0.07699471 -0.11881514 0.03478805 -0.17899878 0.05643069 0.08938574 0.0171416
-0.0150903035 -0.0007138439 -0.16191213 -0.061256535 0.11420202 0.11539804 -0.028436381 -0.00926379
-0.017929282 0.08311464 -0.08985968 -0.04796368 -0.04510615 0.103003226 -0.050782956 -0.059152123
-0.12501213 -0.1667227 0.08364406 0.010136543 -0.17817554 0.24716914 -0.07967429 -0.1611585
0.0899156 0.22912514 0.09417531 0.028130202 -0.21335764 -0.08444224 0.07214051 0.14612474
0.20104808 0.07245918 -0.27495435 -0.0053543523 0.032511123 -0.31619364 0.2000786 -0.16853593
0.10033768 0.16727176 0.2554736 0.045613006 -0.058280062 0.09936754 0.20408443 0.21483532
0.1038366 0.060989387 -0.011385516 0.10373074 0.1284762 0.16006824 0.04826682 -0.043084
0.104606055 0.0035767143 0.058393493 -0.14251891 -0.07105479 -0.0631072 -0.10077178 0.11042101
0.1026169 0.062200937 -0.027710946 -0.046010442 0.02776462 0.18796985 -0.08081856 0.09304531
-0.0804204 0.048235975 -0.034756105 0.14806953 0.030103322 -0.0060196905 -0.077686444 -0.028940018
-0.1698564 -0.03359354 0.068892844 -0.08683356 0.13050978 0.021420276 -0.1489382 -0.020841874
-0.13958313 0.0034235078 -0.0931196 -0.11481227 0.16261296 -0.11575317 0.04347563 0.09375893
0.07136223 -0.202329 -0.077936724 0.068697244 0.036373373 -0.04352218 -0.03152697 0.02207691
0.016210966 0.01539574 0.14083533 0.10793 -0.14002675 0.066568285 0.08535564 -0.08520834

fc1.bias f4 [64]
00000000: 7afd 27bd 4c97 5abd 5f53 55bd b048 68bd
00000010: c606 c7bc d5e9 ac3c 7551 ecbc cd19 a0bc
00000020: 2c9b 40bd a9c1 223d 6b87 073d 0199 11bd
00000030: 02e8 a7bd 2f2e 5dbd aa44 6cbd f21f a3bd
00000040: 25ba efbc 7f39 a2bd 1d46 88bc df6f 043d
00000050: 5aad dcbc 2db9 ea3b ab5e 833d e5ea db3c
00000060: 4aae 6a3b a319 75bd 0bbd e2bc 9aeb 66bc
00000070: d06f 97bd a585 26bd c19a 78bd 5750 953d
00000080: 02ff 063b db5c 8cbd 7b07 2cbd 3859 7cbd
00000090: 473f 29bd bc85 30bd 0df0 113d 9a05 853c
000000a0: 08ba da3a 38d4 0bbd 73db c13d c332 c03d
000000b0: 784a 4bbd e8cc 5bbd 1fd9 9d3c 2405 8bbd
000000c0: d598 6b3d 456c b4bc 475e 03bd 8845 b83c
000000d0: 6fc8 93bd 4d6a c53c c221 813d 8b79 42bd
000000e0: a710 303d 977f 7a3c 72f7 3e3d caef 353b
000000f0: 4946 51bd eb3f 7c3d cc1a a43d ad4c d73c
-0.04101322 -0.053366944 -0.052081462 -0.056709945 -0.024295222 0.021107594 -0.028847435 -0.019543553
-0.047022983 0.03973547 0.03308813 -0.035546307 -0.08198549 -0.053999122 -0.05768267 -0.079650775
-0.029263565 -0.07921123 -0.016634995 0.03233325 -0.02693813 0.007163188 0.06414541 0.026845405
0.003580945 -0.059838902 -0.027678033 -0.014094258 -0.073943734 -0.040654797 -0.06069446 0.07290714
0.0020598774 -0.06853648 -0.04199932 -0.061608523 -0.04132011 -0.04309629 0.03562932 0.016238023
0.0016687522 -0.034137934 0.09465685 0.09384682 -0.049631566 -0.05366221 0.01926857 -0.0678809
0.0575188 -0.022024283 -0.03207233 0.022494093 -0.07215964 0.02409854 0.06305267 -0.047479194
0.04298463 0.015289209 0.0466227 0.0027761334 -0.05109242 0.061584394 0.080129236 0.026281679

fc2.weight f4 [2, 64]
00000000: 603c b53d 8312 853e cb2f e43d 1a3f a63e
00000010: db90 253e 619e 1dbe 56d2 503e 1cd5 4d3e
00000020: 42d1 813d 2fbe eabd df21 81be 78b9 993e
00000030: c2fd 393e ae1b aa3d de30 613e 1784 f5bd
00000040: 82a7 533e de85 93bd 2421 533e eb52 b83d
00000050: e415 103e 3325 c03c 6a5a 9bbd 8f1c 96be
00000060: 341c 87be 412f 183e 9c30 8bbc 3a4e 413d
00000070: 3ebc 6f3e 3d4c a03e 7817 d8bd 059f ea3b
00000080: de20 00be 897e 4ebe 2601 1b3e 9a73 0a3e
00000090: 2617 793e 250a 8e3e 3202 efbd 9abb 6fbe
000000a0: 3b0b 83be c8a3 adbd c9e6 193e f01a 9ebd
000000b0: 14fc 793e 00d8 ec3d 1516 303d 862a 773c
000000c0: 494d 64be 0c43 6bbe f48a 613e 7d4e 0bbe
000000d0: 9f6d c33e ce70 32be 7aa5 a6bd 8e0f 9c3e
000000e0: f80f 8dbe 2e58 013c bc9c c5bc 3bd6 18be
000000f0: 4789 643e 5115 703e 1d31 cabd 3bac eebd
00000100: 9883 8dbd 70be 3ebe b7d3 07be 2a71 3f3e
00000110: 2ce7 94be 472e 663e 3abb 78be ca69 603d
00000120: 3bef 45be 6ead 1a3c 5efd 323c b661 963c
00000130: 5ff4 133c c4a6 bdbd 6b12 0a3e c4a6 4bbe
00000140: b6cc 1bbe f2ee 84be 1ad0 05be aaa3 823e
00000150: d7cc 2bbc f953 783e 7197 403d 076c b3bd
00000160: f453 b93c 217a 46be ba5e 0abe 545e 9ebd
00000170: 65e4 7ebe 9766 37bd 571f 6fbe 8735 173e
00000180: 392b 553e 1c10 a6be a2f8 28be 2a0c f2ba
00000190: 71ce 81bd 0364 d03d d013 623e 4703 083e
000001a0: 9ecc 5f3e d6d8 a0be ad15 913e 702e ca3d
000001b0: 1ce7 68be 6b39 1ebe 69a7 7c3e 7adb 59be
000001c0: 2b82 713e f743 abbe 6336 3c3e 3368 833e
000001d0: 9d33 2c3e 55b5 7f3e f273 033e f2b8 15bd
000001e0: dfbd ae3c d09b 353e 41e4 b33d 7c1d db3d
000001f0: 0972 47bd 9d97 943e 9b4e 993d 5934 ac3d
0.08849406 0.25990686 0.11141928 0.32470018 0.16168539 -0.15392448 0.20392737 0.20100826
0.06338741 -0.11462056 -0.25221154 0.30024314 0.18163207 0.08306061 0.21991298 -0.11988085
0.20669368 -0.072032675 0.20618111 0.0900019 0.1407085 0.023455238 -0.075856045 -0.29318663
-0.26388705 0.14861776 -0.016990952 0.047193743 0.23411652 0.31308165 -0.10551351 0.00716007
-0.12512538 -0.20165457 0.15137157 0.13520661 0.24325237 0.27742115 -0.116703406 -0.23411408
-0.25594506 -0.084785044 0.15029444 -0.07719982 0.24412566 0.11564636 0.04298981 0.015085822
-0.22295107 -0.22974795 0.22025663 -0.1360416 0.38169572 -0.17425844 -0.08137031 0.30480617
-0.27551246 0.007894559 -0.024122588 -0.14925472 0.22317992 0.23445632 -0.09872649 -0.11653944
-0.06909865 -0.18627334 -0.13264357 0.18695512 -0.2908262 0.22478591 -0.24290171 0.05478839
-0.1932954 0.009440763 0.010924665 0.01835714 0.009030431 -0.09260324 0.13483588 -0.19887835
-0.1521481 -0.2596355 -0.13067666 0.2551549 -0.010485849 0.24250783 0.047019426 -0.08760839
0.02262304 -0.19382526 -0.13512698 -0.077328354 -0.24891813 -0.04477557 -0.23351799 0.14766513
0.2081727 -0.32434165 -0.16501096 -0.001846676 -0.06338204 0.10175326 0.2207787 0.132825
0.21855399 -0.31415433 0.2833685 0.098721385 -0.22744411 -0.1545159 0.24673237 -0.2127513
0.23584811 -0.3345029 0.18380122 0.25665435 0.16816564 0.24971516 0.12837198 -0.03655333
0.021330772 0.17735219 0.0878377 0.10698983 -0.048692737 0.29021922 0.07485696 0.08408422

fc2.bias f4 [2]
00000000: 88d1 b2bd 88d1 b23d
-0.08731371 0.08731371
