train_result/twibot20/dynamic_cd_no_cl/classifier.pth (torch, 68017 bytes, 4 tensors)

fc1.weight f4 [64, 256]
0.029935805 -0.057365254 -0.0042777783 0.15222296 0.048987847 -0.054703962 0.11498817 -0.12738475
0.09150606 0.12008599 0.014856043 0.04409732 0.021244502 -0.014159102 -0.051619645 0.05722486
-0.033109885 0.07922694 0.060352642 -0.09291657 0.06367713 -0.12034061 -0.008114054 0.12826605
-0.047001746 -0.08397988 -0.11083383 0.035303 -0.120324686 0.025925906 0.08613874 0.047145806
0.07411383 0.014433045 -0.13619472 0.1240674 0.07575444 -0.11977615 0.072219126 -9.4202514e-05
-0.105100445 0.001871388 -0.0055504944 -0.053237252 -0.095770516 0.0043506213 -0.11606028 -0.06601357
0.15904647 0.1688037 0.002946387 0.078649074 0.009810067 -0.07445568 0.047761977 0.09301329
-0.119425885 0.08180719 0.09714003 0.1067034 0.12444071 -0.011336569 -0.028374815 0.16031158
0.072565384 0.1055948 -0.023539418 -0.02292048 0.008864916 0.0070559536 -0.07612507 -0.17204037
0.08536787 0.113285705 -0.11525662 -0.002726469 0.1298779 -0.06065457 -0.025992962 -0.04486155
-0.020356618 0.023395425 -0.082333244 -0.05126989 -0.023432164 -0.1512889 -0.117242664 -0.1302522
-0.0037873662 -0.039632242 -0.13707821 -0.023121385 -0.11580848 0.059874453 0.14269747 -0.06679972
0.061514474 0.07267106 0.16670716 0.12194687 0.10631728 -0.14460076 -0.045624506 0.1027106
-0.0047188518 0.030206885 -0.072958745 0.16681951 0.061761852 0.030983215 -0.10194203 -0.011998638
-0.066191666 0.031880513 0.095495544 -0.12881161 0.045181647 -0.106986545 0.09579777 0.020864008
0.09357748 -0.055482082 -0.045567624 0.071921654 0.15694705 -0.12888359 0.018262958 0.09253333
0.030598637 -0.02784894 -0.112696774 0.13639838 -0.041328773 -0.104403146 0.040605966 0.087169714
-0.030613163 0.07253213 -0.07016726 0.048092265 -0.1363845 0.08952162 0.1317258 0.024023347
-0.028038913 0.024702359 -0.176598 -0.09700102 0.12187683 0.11202464 0.007964495 -0.019242093
0.002131352 0.13268255 -0.085721016 -0.05819813 -0.059392955 0.12804352 -0.082979456 -0.02609964
-0.12090961 -0.088143885 0.10918162 -0.074995816 -0.13141002 0.15466699 -0.1294779 -0.072578974
-0.019095354 0.18975495 0.10779288 0.047544613 -0.15055536 -0.017326597 -0.024639186 0.1152313
0.105005234 0.060183395 -0.170232 -0.058778714 0.04022102 -0.20078987 0.11360706 -0.13316892
0.09237804 0.14131688 0.15638262 0.095526084 0.005127587 0.09957528 0.1260234 0.102323905
0.09654713 0.10686256 -0.033318453 0.06305414 0.1566272 0.14497977 0.04181333 -0.08445934
0.10097276 -0.022086173 0.05379806 -0.12839249 -0.010630817 -0.040088613 -0.11382285 0.09680042
0.1300152 0.074220724 -0.073091954 -0.076970644 -0.020506697 0.17675163 -0.093109176 0.09990674
-0.11129523 0.065255575 -0.016561832 0.17875426 0.028695185 0.02546059 -0.055854525 -0.030735325
-0.16294174 -0.06095993 0.0941018 -0.08851318 0.080577135 0.013167342 -0.12224389 -0.08470491
-0.13246997 -0.05946733 -0.13016838 -0.12608643 0.10136002 -0.0881402 0.015772283 0.005671031
0.03826195 -0.121116914 -0.084378935 0.050274007 0.008996996 -0.00034643125 -0.015718766 0.09378369
0.00701976 0.014617507 0.14475474 0.13690169 -0.12553102 0.05119432 0.08575495 -0.05997577
00000000: ef3b f53c d4f7 6abd 9b2c 8cbb 56e0 1b3e
00000010: 7ba7 483d 4311 60bd eb7e eb3d 2671 02be
00000020: 8767 bb3d a5ef f53d c366 733c 649f 343d
00000030: f308 ae3c 94fb 67bc 1f6f 53bd 9d64 6a3d
00000040: 3b9e 07bd bc41 a23d 5534 773d 0b4b bebd
00000050: 2869 823d 2375 f6bd cff0 04bc 2d58 033e
00000060: e784 40bd a5fd abbd d9fc e2bd e199 103d
00000070: ca6c f6bd 9162 d43c 8269 b03d f61b 413d
00000080: fec8 973d 9478 6c3c a176 0bbe 0d17 fe3d
00000090: 2525 9b3d 334d f5bd 9fe7 933d 978e c5b8
000000a0: e73e d7bd 5d49 f53a ece0 b5bb 4e0f 5abd
000000b0: 5523 c4bd a88f 8e3b 03b1 edbd 1f32 87bd
000000c0: 14dd 223e e1da 2c3e 2c18 413b c412 a13d
000000d0: 67ba 203c 387c 98bd 10a2 433d c07d be3d
000000e0: 8f95 f4bd 878a a73d 5af1 c63d 5087 da3d
000000f0: c5da fe3d 04bd 39bc 4d72 e8bc b828 243e
00000100: 299d 943d 1642 d83d bdd5 c0bc bbc3 bbbc
00000110: 273e 113c a135 e73b 76e7 9bbd 5a2b 30be
00000120: 5ad5 ae3d 5602 e83d aa0b ecbd 8fae 32bb
00000130: b6fe 043e ed70 78bd 31ef d4bc bfc0 37bd
00000140: ecc2 a6bc c3a7 bf3c 559e a8bd 6000 52bd
00000150: cff4 bfbc 7aeb 1abe ec1c f0bd d560 05be
00000160: 7635 78bb 6b55 22bd 3b5e 0cbe 0f69 bdbc
00000170: ff2c edbd ea3e 753d 491f 123e 4bce 88bd
00000180: 9af6 7b3d 91d4 943d 48b5 2a3e 48bf f93d
00000190: e0bc d93d 3912 14be c3e0 3abd ef59 d23d
000001a0: 99a0 9abb 6e74 f73c 656b 95bd bcd2 2a3e
000001b0: fff9 7c3d 83d0 fd3c fcc6 d0bd ef95 44bc
000001c0: 7f8f 87bd 2495 023d 2b93 c33d 31e7 03be
000001d0: 6410 393d c31b dbbd 9f31 c43d ffea aa3c
000001e0: 8da5 bf3d 2e41 63bd 1ea5 3abd a94b 933d
000001f0: bab6 203e 0ffa 03be 339c 953c 1d82 bd3d
00000200: fea9 fa3c 7623 e4bc 91cd e6bd 04ac 0b3e
00000210: 5c48 29bd 51d1 d5bd 7152 263d 0986 b23d
00000220: 75c8 fabc ba8b 943d dab3 8fbd 65fc 443d
00000230: 61a8 0bbe 1c57 b73d 21e3 063e 9ccc c43c
00000240: ddb1 e5bc 9a5c ca3c 1bd6 34be 79a8 c6bd
00000250: 8f9a f93d 2d6d e53d 837d 023c 98a1 9dbc
00000260: 27ae 0b3b efdd 073e 808e afbd 2a61 6ebd
00000270: 0746 73bd d71d 033e 22f1 a9bd eace d5bc
00000280: 759f f7bd c884 b4bd 9d9a df3d 6897 99bd
00000290: 5990 06be 0661 1e3e db95 04be 49a4 94bd
000002a0: dc6d 9cbc 1f4f 423e 83c2 dc3d 24be 423d
000002b0: 2f2b 1abe 82f0 8dbc 1ed8 c9bc 63fe eb3d
000002c0: fc0c d73d dd82 763d 4c51 2ebe f3c1 70bd
000002d0: ccbe 243d dc9b 4dbe d1aa e83d 6f5d 08be
000002e0: b330 bd3d 5fb5 103e c422 203e 2ea3 c33d
000002f0: 5105 a83b 20ee cb3d 470c 013e 328f d13d
00000300: 80ba c53d c2da da3d ee78 08bd 8722 813d
00000310: e162 203e 9475 143e 7444 2b3d 05f9 acbd
00000320: ceca ce3d 10ee b4bc 5b5b 5c3d 5279 03be
00000330: e12c 2ebc f533 24bd f41b e9bd 4c3f c63d
00000340: b422 053e 0901 983d 3cb1 95bd c9a2 9dbd
00000350: a9fd a7bc 61fe 343e 06b0 bebd e89b cc3d
00000360: c1ee e3bd b7a4 853d aeac 87bc 5b0b 373e
00000370: 2a12 eb3c ba92 d03c b7c7 64bd a6c8 fbbc
00000380: 33da 26be 1fb1 79bd 72b8 c03d 6646 b5bd
00000390: a005 a53d d6bb 573c 015b fabd c579 adbd
000003a0: 35a6 07be 0494 73bd dc4a 05be cd1c 01be
000003b0: d895 cf3d d982 b4bd e034 813c 0ed4 b93b
000003c0: 90b8 1c3d 250c f8bd ddce acbd 1eec 4d3d
000003d0: 2368 133c 37a1 b5b9 a4c4 80bc aa11 c03d
000003e0: 0406 e63b 457e 6f3c 963a 143e f52f 0c3e
000003f0: 348b 00be 23b1 513d 4ba0 af3d 27a9 75bd

fc1.bias f4 [64]
-0.0041300817 -0.008660008 -0.0048878044 0.0144776255 -0.0016155794 0.011820735 0.0055172495 -0.0077465023
-0.0017155382 -0.00028900272 0.013737751 -0.0119041 0.00082158356 -0.006747516 -0.014750878 -0.02287002
-0.014483942 -0.0021036682 -0.008508977 0.011723289 0.022781484 0.00069566857 -0.012921609 0.002103843
-0.008781792 -0.005071135 -0.01571409 0.014079716 -0.014869307 0.0012185506 0.010030106 0.027814096
-0.0012888971 -0.025743693 0.0017347704 -0.012122904 -0.008606686 0.002268045 0.005338619 0.0056068697
0.0032152818 -0.014483216 0.025142442 0.012635092 -0.010397445 -0.016689342 -0.005884209 -0.017273095
-0.007580174 -0.006360321 -0.024472157 0.0043304926 0.011292011 -0.004770896 0.0036119146 -0.013148376
0.019881502 -0.0026635411 0.013142421 -0.012742846 0.012389744 -0.00039072643 0.043175776 -0.0043725893
00000000: a355 87bb b5e2 0dbc e029 a0bb 9033 6d3c
00000010: d9c1 d3ba c2ab 413c 0bca b43b 5fd6 fdbb
00000020: e9db e0ba 4a85 97b9 4e14 613c 6a09 43bc
00000030: 8a5f 573a 441a ddbb abad 71bc e859 bbbc
00000040: 0e4e 6dbc b2dd 09bb 3c69 0bbc 0a13 403c
00000050: 3ca0 ba3c 875d 363a 28b5 53bc a1e0 093b
00000060: 81e1 0fbc c32b a6bb d6ba 80bc 9cae 663c
00000070: 659e 73bc c6b7 9f3a 5055 243c 63da e33c
00000080: 36f0 a8ba 70e4 d2bc 3c61 e33a 259f 46bc
00000090: 0f03 0dbc 7ba3 143b 95ef ae3b d5b9 b73b
000000a0: 7ab7 523b 034b 6dbc 86f7 cd3c 6b03 4f3c
000000b0: 0c5a 2abc 16b8 88bc 53d0 c0bb 4e80 8dbc
000000c0: 1c63 f8bb 3d6a d0bb d579 c8bc cee6 8d3b
000000d0: 2002 393c 2d55 9cbb dfb5 6c3b 496c 57bc
000000e0: 88de a23c ce8e 2ebb 4f53 573c 5fc7 50bc
000000f0: 5afe 4a3c 6ada ccb9 15d9 303d f047 8fbb

fc2.weight f4 [2, 64]
0.047288954 0.24189156 0.0640301 0.24652953 0.15029201 -0.16665237 0.17923804 0.15368032
0.039926186 -0.10545914 -0.23575905 0.26247174 0.16228317 0.045681816 0.2576145 -0.15165608
0.17410088 -0.13198347 0.19337067 0.11836846 0.119586475 -0.016215237 -0.03979512 -0.30260143
-0.27405775 0.16591394 -0.028943244 0.060774785 0.24997824 0.32246345 -0.12624016 0.024488974
-0.17104737 -0.2305496 0.18780126 0.11026183 0.24722119 0.2532072 -0.11952418 -0.28683394
-0.26238197 -0.10022589 0.17329834 -0.027385637 0.25566754 0.07783701 0.041215453 -0.006374107
-0.22262338 -0.25073144 0.23189957 -0.13703415 0.33372033 -0.16455083 -0.06936588 0.29015777
-0.2512805 -0.06002707 -0.024660248 -0.1629168 0.16640458 0.27923518 -0.07076096 -0.1024217
-0.027893584 -0.16825786 -0.08525433 0.26512617 -0.27943203 0.23751384 -0.21821238 0.102116264
-0.16983445 0.00027938388 -0.0055279527 0.05612789 0.02837926 -0.055224456 0.09713434 -0.16710319
-0.119555265 -0.19968487 -0.117866494 0.22678797 0.010636255 0.28217855 0.010958604 -0.07819376
0.032793734 -0.21112148 -0.1231748 -0.090909354 -0.26478007 -0.05415704 -0.21279135 0.1303363
0.25409433 -0.29544678 -0.20144062 0.023097957 -0.067350954 0.12596759 0.2235998 0.18554513
0.22499055 -0.29871336 0.26036316 0.04890723 -0.2389861 -0.11670661 0.24850623 -0.19129115
0.23552054 -0.31351948 0.17215829 0.25764874 0.2161411 0.2400081 0.116367534 -0.021905012
-0.0029013488 0.24527414 0.08837531 0.12065177 0.008082385 0.24544057 0.04689132 0.06996647
00000000: 10b2 413d 6cb2 773e 3722 833d 3d72 7c3e
00000010: 26e6 193e eba6 2abe 2d8a 373e 605e 1d3e
00000020: a489 233d f6fa d7bd d26a 71be b262 863e
00000030: 8f2d 263e db1c 3b3d 0ce6 833e bb4b 1bbe
00000040: 8047 323e ad26 07be f602 463e 2a6b f23d
00000050: c1e9 f43d d1d5 84bc 3500 23bd 93ee 9abe
00000060: 4c51 8cbe 58e5 293e 621a edbc fbee 783d
00000070: 4cfa 7f3e ee19 a53e 1a45 01be 1a9d c83c
00000080: 0b27 2fbe 3215 6cbe f94e 403e f4d0 e13d
00000090: 8d27 7d3e 60a4 813e 18c9 f4bd e6db 92be
000000a0: ee56 86be 3b43 cdbd 1f75 313e d857 e0bc
000000b0: dbe6 823e 0369 9f3d 89d1 283d e3dd d0bb
000000c0: 62f7 63be df5f 80be 1577 6d3e ae52 0cbe
000000d0: 64dd aa3e 0380 28be b30f 8ebd 8f8f 943e
000000e0: d6a7 80be f2de 75bd 4a04 cabc a9d3 26be
000000f0: f665 2a3e eaf7 8e3e 1feb 90bd 78c2 d1bd
00000100: 1681 e4bc ca4b 2cbe d299 aebd 9ebe 873e
00000110: b711 8fbe d436 733e 1173 5fbe 5522 d13d
00000120: 15e9 2dbe 457a 9239 d423 b5bb 5ce6 653d
00000130: 9f7b e83c 0a33 62bd 5eee c63d 191d 2bbe
00000140: 64d9 f4bd 317a 4cbe fd63 f1bd 1b3b 683e
00000150: b043 2e3c b579 903e b78b 333c 0d24 a0bd
00000160: b952 063d 3b30 58be 1243 fcbd af2e babd
00000170: 4191 87be c6d3 5dbd fae5 59be e176 053e
00000180: a718 823e cd44 97be 7346 4ebe ed37 bd3c
00000190: 4cef 89bd a6fd 003e 59f7 643e 8bff 3d3e
000001a0: ec63 663e f5f0 98be 524e 853e f352 483d
000001b0: c6b8 74be e003 efbd 6b78 7e3e d4e1 43be
000001c0: 4c2c 713e a085 a0be 434a 303e 89ea 833e
000001d0: 1854 5d3e afc4 753e 1a52 ee3d 2472 b3bc
000001e0: 8e24 3ebb 2529 7b3e 1dfe b43d 4618 f73d
000001f0: fb6b 043c c654 7b3e 1d11 403d 954a 8f3d

fc2.bias f4 [2]
-0.02320898 0.023208976
00000000: c220 bebc c020 be3c
